Exercise 1/checkpoint.pth (torch, 439727 bytes, 6 tensors)

fc1.weight f4 [128, 784]
000000 9e 35 84 3c 30 67 db 3b 5c 95 d7 bc c8 7f c4 3b
       0.016138848 0.0066956505 -0.026316337 0.005996678
000010 43 3b 96 bc d0 6a 3b bb 9e c9 f9 3c f0 ec 25 3c
       -0.018338805 -0.00285976 0.030491646 0.010127291
000020 1f 49 07 bd b8 b6 87 3c 92 97 90 3c d0 53 43 3b
       -0.033028718 0.01656662 0.0176504 0.0029804595
000030 30 ee a1 3b d0 d2 1f 3c 4c 2c 93 bd 2b 6f 5d bd
       0.0049417242 0.009754851 -0.07186183 -0.054061096
000040 a0 31 88 bc 38 53 44 bc 30 26 f4 3b a0 5c c5 3c
       -0.016625226 -0.0119827315 0.0074508414 0.024092019
000050 1c 51 a2 bb 40 41 d4 ba d4 76 56 3c a2 97 ae 3c
       -0.0049535166 -0.0016193762 0.013089854 0.021312539
000060 26 7e ed 3c f0 8c 53 bb ee 5c 18 bc a8 e1 be bc
       0.028990816 -0.003228005 -0.0092995 -0.02330096
000070 be 19 c5 bc a0 f9 3e 3c b2 00 fc 3c e0 45 8e 3a
       -0.024060126 0.011656195 0.03076205 0.0010854565
000080 89 4a 42 bd 5a 6d 65 bd b8 c3 f6 bd 4d 9e f7 bd
       -0.047434364 -0.05601249 -0.12049049 -0.1209074
000090 70 63 08 be fb 7d 67 bd 47 50 c9 bd 07 db b0 bd
       -0.13319182 -0.05651663 -0.09829765 -0.08635526
0000a0 8e 7c be bd ed 9b ba bd d0 37 cc 3c c2 c8 f7 bd
       -0.09301101 -0.09111772 0.024928957 -0.120988384
0000b0 d3 70 e5 bd 77 67 81 bd fc 5c 00 be 60 75 81 bd
       -0.1120316 -0.063185625 -0.1253547 -0.06321216
0000c0 2a 49 21 be fd 4e a1 bd 3f f7 da bd dd 88 a2 bd
       -0.15750566 -0.07876394 -0.1069169 -0.07936261
0000d0 14 75 26 3c 4a a1 25 bc 7c 49 c1 3c 12 89 dc 3c
       0.01015975 -0.010109255 0.02359461 0.026920829
0000e0 40 a2 31 3c a0 31 e0 ba 72 4e 06 bd 47 ec c5 bb
       0.010841906 -0.0017104633 -0.032789655 -0.0060401293
0000f0 63 6e ac bd 9b 25 8b 3d ca 99 8e bd ea f0 52 bd
       -0.08419492 0.06794282 -0.06962927 -0.051499285
000100 8f 5f 8c bd f0 a3 14 3d b6 5d 7a bd b2 dc 04 be
       -0.06854164 0.036289155 -0.061124526 -0.12974814
000110 15 ec 9a bd e7 b5 93 3d c7 fc 8b 3d 76 40 8e 3b
       -0.0756456 0.072124295 0.06835323 0.0043411804
000120 cf 09 76 bd 34 e9 97 3c 1f 0c 80 bd e6 fd cb bd
       -0.060067948 0.018543817 -0.06252312 -0.09960537
000130 1e 50 1f bd cc d9 8e 3d 35 15 52 3d 98 7a f2 3b
       -0.038894765 0.06975135 0.051289756 0.007399868
000140 cb d1 a7 3d 7e 52 0e bd 73 3e f0 bc b0 54 7f 3b
       0.08194312 -0.03474664 -0.029326653 0.003896039
000150 48 d5 4d 3c 2c 40 a6 bc 92 3c 85 bc d2 7b 04 be
       0.012563057 -0.020294271 -0.016264234 -0.12937859
000160 28 71 92 3d 37 20 d7 3d 09 de 3b bc 47 e9 de bd
       0.07150489 0.10504191 -0.0114665115 -0.10884338
000170 bd 43 ff bd 5b 41 1e bd 8e 4b 0a bd 52 65 4b bd
       -0.12464092 -0.038636547 -0.03376346 -0.049657173
000180 eb 73 67 3b 52 27 20 bd a1 3e 34 3d e5 6c 71 3d
       0.0035316895 -0.0391 0.04400504 0.05894174
000190 1e 59 66 3d da e4 6a 3d 86 f9 6d 3d 14 94 e4 3d
       0.056237333 0.057347156 0.058099292 0.11161056
0001a0 fb 15 17 3e 17 84 32 3e ae 57 f1 3d 92 f1 3e 3e
       0.14754479 0.17433201 0.11784302 0.1864684
0001b0 c3 74 8d 3c db 63 82 3d c5 66 36 bd d4 6d f2 bb
       0.01726759 0.06366702 -0.044531602 -0.0073983464
0001c0 b0 a6 ae 3c cb 6e ef 3c 39 03 63 bd 3c a2 d9 bd
       0.021319717 0.029227635 -0.055422995 -0.10626647
0001d0 4e 62 e5 3d c4 0d 6b 3e d4 90 ce 3b e6 cb b0 3d
       0.11200391 0.2295447 0.006303886 0.086326405
0001e0 e9 1f 10 3e 3d d4 b2 bc 75 73 c8 bb 77 03 7e bc
       0.14074673 -0.021829719 -0.006117279 -0.015503756
0001f0 60 e3 96 3d 96 43 b8 bb a9 d2 54 bd 04 26 03 bd
       0.07367587 -0.0056232912 -0.051958714 -0.032018676
000200 83 7d a6 ba 66 67 4e bb 80 83 eb 3c 67 88 8f 3d
       -0.00127022 -0.0031494736 0.028749228 0.070084386
000210 d0 f6 94 3d 40 9f 2c 3e 7c 3b 33 3e e5 17 6d 3d
       0.07273638 0.16857624 0.1750316 0.057884116
000220 16 4d ab 3d 73 71 83 3d 7e 53 c9 bd 82 e0 6c bd
       0.08364312 0.06418123 -0.09830378 -0.057831295
000230 90 e8 d4 3b ee 11 10 bd 6f f0 43 3c ae 28 75 3d
       0.00649745 -0.03517335 0.011959179 0.05985325
000240 2e 47 33 3e e0 1d dd 3d 54 36 ce 3d ae 9c 0e 3e
       0.17507622 0.10796714 0.10068956 0.13926956
000250 ee d7 19 3e 0e a5 55 3b 55 5f 7e 3c cc bd 3d bd
       0.15023777 0.00325996 0.015525659 -0.046323583
000260 2e d5 bc bc 34 30 13 bd 80 79 a0 bc 23 57 ad 3c
       -0.02305087 -0.035934642 -0.019589186 0.021159714
000270 b7 76 fb bc 39 6d 4c bc 43 7f 2e 3d dd e1 6e 3d
       -0.030696256 -0.012477213 0.042601835 0.05832087
000280 c3 81 80 3d 5c 7a 0f 3e d2 cc 25 3e 0a c5 45 3e
       0.0627475 0.1401152 0.16191414 0.19313446
000290 44 ca 43 3e e2 a6 47 3d 6f 39 47 bd 10 28 3f bc
       0.19120127 0.048743136 -0.048638757 -0.0116672665
0002a0 ee c8 0c bd 77 f1 87 3d c8 96 3e 3c 7d db 6c 3c
       -0.03437131 0.06637853 0.011632629 0.014456627
0002b0 30 cc ea 3c c6 28 f7 3d a6 4c c0 3d 59 cc 74 3d
       0.028661817 0.12068324 0.093896195 0.059765194
0002c0 e9 07 09 3d 26 78 3f 3c 98 5c c0 bd 14 40 cc bd
       0.03345481 0.01168636 -0.09392661 -0.099731594
0002d0 e0 ae 4d bd f1 fa 92 3c 46 31 80 bd b4 0c a4 bd
       -0.050215602 0.017941924 -0.06259398 -0.080102354
0002e0 50 c0 16 be 9d 1e e6 bd fd 3b df bd be 5e 1c bd
       -0.14721799 -0.11236308 -0.10900114 -0.03817629
0002f0 ce 55 1c bb 94 1a 81 3d 19 71 ba 3d 2c 75 49 3e
       -0.0023854855 0.063038975 0.09103603 0.19673604
000300 c1 a4 3e 3e dd 84 bd 3c 89 44 8d 3c e3 87 0a be
       0.18617536 0.023134643 0.017244594 -0.13528399
000310 1e e4 c6 bc 14 7d 8b 3d 69 6b 8a 3c 58 a1 4d bd
       -0.024278697 0.06810966 0.01689692 -0.050202698
000320 e9 b7 cc 3d b4 63 15 3e ac 99 7a 3d 95 3a 07 3d
       0.099960156 0.14588815 0.06118171 0.033014853
000330 3b 09 71 bd cf d4 99 bd fe 56 cc bd 4a 24 ad bd
       -0.058846693 -0.07511293 -0.0997753 -0.08454187
000340 94 20 d3 bc 5f d1 a6 bb 31 cb 57 bd 15 ff 2d be
       -0.02577237 -0.005090877 -0.052684013 -0.16991837
000350 58 63 80 be 99 b2 1f be 66 04 1a be 3c 54 94 bd
       -0.25075793 -0.15595473 -0.1504074 -0.07242629
000360 63 0b 92 3c 61 e7 1c 3d ac f0 00 3d 1c a0 d5 3d
       0.017827695 0.038306598 0.031479523 0.10430929
000370 77 ff 22 3e 7f b3 ff 3b d5 81 2f bc 79 8e be bd
       0.15917765 0.00780338 -0.010712107 -0.09304518
000380 19 54 38 bd 4a c7 f1 bd e4 1f a5 3b b2 cc 68 3d
       -0.045002077 -0.118055895 0.005039202 0.056835838
000390 f3 58 a1 3d f4 cd c6 3d 43 cd 3a 3d 4b 86 20 bc
       0.07878294 0.09707251 0.04560591 -0.009797643
0003a0 ac 38 92 bd 93 52 96 bd f0 44 f1 bd c2 2a 68 bd
       -0.071397156 -0.073399685 -0.11780727 -0.056681402
0003b0 f0 6b 2b bd 14 26 01 bd de 31 c4 bd b9 84 3f be
       -0.041850984 -0.031530455 -0.09579824 -0.18702973
0003c0 60 31 63 be f8 60 4f be 1a 14 8e bd 44 ea 06 3d
       -0.22186804 -0.20251834 -0.06937428 0.032938257
0003d0 b8 58 7e 3d 87 63 82 3d c7 32 0f bd 7f a9 65 bc
       0.062096328 0.063666396 -0.034960534 -0.014017462
0003e0 af d4 37 3d e6 58 70 bc c3 52 e8 3c 78 11 da bc
       0.044880565 -0.014669633 0.028359776 -0.026619658
0003f0 f8 d7 25 bd f8 fd 6e be c1 29 87 bc b3 3c 81 3c
       -0.040489167 -0.23339069 -0.016499402 0.015776014

fc1.bias f4 [128]
000000 6e 04 40 3d b5 8b 36 3d 2e 2a 64 bd 79 a2 52 bd
       0.046879224 0.04456683 -0.05570429 -0.051424477
000010 34 76 47 bc 61 3e 4a 3d c8 a6 8c 3d 1a d1 2e bd
       -0.012174178 0.049375895 0.068677485 -0.042679884
000020 07 85 48 3b 9b 17 67 bc b3 f6 80 3d 74 26 b3 3d
       0.0030596869 -0.014104749 0.06297054 0.08747569
000030 4f 24 6a 3d 58 e1 24 bd 71 e4 03 3d f0 d1 7c 3d
       0.057163533 -0.040253967 0.03220028 0.06172365
000040 b4 8c 65 3d 03 10 77 3d e6 2a 00 3d c3 dc aa 3d
       0.056042388 0.060318004 0.03129091 0.08342888
000050 cb a2 49 bd 9f a9 8a bd 5f d2 bd bc 00 50 92 bc
       -0.049227517 -0.06770634 -0.023171602 -0.017860413
000060 52 a6 12 3d fd 95 98 bd ee 96 27 3d 4d 2a b4 3d
       0.035803147 -0.07450483 0.040915422 0.08797131
000070 83 1c aa 3d 54 ed 38 bd 4a 45 c4 3d fe e9 a3 bd
       0.083062194 -0.04514821 0.09583528 -0.08003615
000080 8e 5a 86 3c 96 fc 52 3d 1d 51 4a bd 29 e1 2b 3d
       0.016400602 0.051510416 -0.049393762 0.041962776
000090 89 e2 bd 3b e7 e6 a7 bc b2 07 7f 3d 4c a0 2c bd
       0.0057948274 -0.020495845 0.0622632 -0.04214506
0000a0 d6 1a 28 bb 7b 21 13 3e 10 b0 ba 3c 2b cb 65 bd
       -0.002565076 0.1436824 0.022789031 -0.05610196
0000b0 d4 95 05 3d da 18 c5 3d 0a ca 68 3d df 01 cb 3a
       0.03261359 0.09623881 0.056833304 0.0015488229
0000c0 54 fa b3 3d 11 63 24 3e 39 bc c7 bb a8 54 a1 3c
       0.08787981 0.16053416 -0.006095436 0.019693688
0000d0 16 d6 4e 3c 14 f9 ac 38 a7 72 3c 3d eb 5c d9 3d
       0.012624284 8.2479935e-05 0.04600778 0.10613426
0000e0 aa 59 60 bd 91 6f 2f 3d df 99 34 3d a2 2e 62 3d
       -0.05477301 0.042831007 0.044092055 0.055220254
0000f0 94 5a 82 3b 2e 69 0c 3e 9d 5a 0a 3e cf 5a 98 bc
       0.003978083 0.13711998 0.13511129 -0.018597988
000100 47 e5 26 bc aa 5f 6e 3d 78 1a 03 3d a8 3f 5b 3d
       -0.0101865 0.0581967 0.032007664 0.053527504
000110 13 be 17 3b 46 42 84 bd 1a 87 5b 3d 52 a6 fb 3d
       0.0023154065 -0.06457953 0.05359564 0.122875825
000120 6d c2 b9 3d 50 ce 93 bd e0 0c 47 3c 67 fb 91 bc
       0.09070287 -0.07217085 0.012149066 -0.017820073
000130 f3 0b e1 bc 25 9b 10 ba 9d f9 e1 3c e5 80 22 3d
       -0.027471518 -0.00055162824 0.027584845 0.039673705
000140 c9 72 20 bd 87 58 f0 3d e5 c6 53 bd 3b 91 00 3d
       -0.039171968 0.11735635 -0.051703352 0.031388503
000150 d3 3e d2 3d 48 ca 19 3d 3e 58 bc 3c b8 db 93 bc
       0.10265889 0.037546426 0.022991296 -0.018049106
000160 21 72 a3 bc 3d b1 9a 3d 8f f1 b2 3d 9a f7 72 3d
       -0.019951882 0.07553337 0.0873748 0.059318163
000170 09 96 3f bd 87 a1 15 bd 46 ad bd 3d 05 b8 85 3d
       -0.046773944 -0.036530998 0.09261565 0.065292396
000180 de 99 48 bd ca 03 5c 3c 98 7b ea bd 6d 80 a1 3d
       -0.048974864 0.013428638 -0.11449355 0.078858234
000190 8e 9a 0b 3d fd c4 3d bd 43 5f 42 bd f1 e6 7b ba
       0.03408294 -0.04633044 -0.04745413 -0.0009609303
0001a0 b3 cb 8f bd e3 b9 7a 3d 54 00 1c 3e 61 ce 2e bd
       -0.070212744 0.06121243 0.152345 -0.042677287
0001b0 f2 1d 85 3d b4 42 91 3b 7d f6 46 bd d7 c8 c0 3b
       0.06499852 0.0044330005 -0.048574913 0.005883317
0001c0 16 7b 30 bc 71 d9 66 3d 36 06 90 3d 13 1c 9c bc
       -0.0107715335 0.056359712 0.07032435 -0.019056356
0001d0 52 3b 60 3d 87 12 8e 3c 03 7a c0 3c 52 81 96 3c
       0.054744072 0.017342819 0.02349568 0.018372212
0001e0 11 7b 0b 3d c9 5c 9b bd 7b 12 0f 3c ae 41 df bc
       0.034052912 -0.07586057 0.008732433 -0.027252998
0001f0 2a 98 9d bc 33 46 e7 bd fd 56 ac bb 18 59 a9 3c
       -0.019237597 -0.11292686 -0.0052593932 0.020672366

fc2.weight f4 [64, 128]
000000 7f 51 1c 3e 7d db 41 3e 4f 51 3a bd 47 b8 15 3d
       0.15265463 0.18931384 -0.0454877 0.036552694
000010 86 99 86 3d bc 96 37 3d 62 54 d3 bd 29 02 91 bd
       0.06572251 0.044821486 -0.10318829 -0.0708049
000020 2a f5 fd 3a 92 1f 97 bd cd 6f b8 3d 90 1a 8a 3d
       0.0019375433 -0.073790684 0.09005699 0.06743348
000030 e9 bc 3e 3e 5b 7a 33 3c 28 07 a6 3d 2d a8 e2 3d
       0.18626751 0.010954465 0.08106834 0.11067233
000040 66 11 ee 3d 16 f7 a4 bd 75 a0 cd 3c df e9 ce bd
       0.11624412 -0.080549404 0.025100926 -0.10103201
000050 07 85 f7 bb e6 ea 68 3c 00 76 32 bd 45 1b d4 bd
       -0.0075537 0.01421616 -0.043569565 -0.10356764
000060 cf 54 0d be 26 50 eb bd bc b5 b0 3c b0 0c bb bd
       -0.13801883 -0.114898965 0.021571033 -0.09133279
000070 a6 6d 91 3e 0d 77 98 3d 7b d1 11 3e a6 ba d9 bb
       0.28403968 0.07444582 0.14240067 -0.0066445647
000080 63 4c 1c be 7a 65 a3 bc 13 59 99 3d e0 0d 52 bc
       -0.15263514 -0.019945849 0.07487693 -0.012820691
000090 aa ac 20 3d ba 56 f6 bc c8 2f d9 bc 6c c7 ea 3d
       0.039227165 -0.030070651 -0.026512042 0.11463818
0000a0 7f 0c 26 be 8e a4 d2 bd d5 ac 6f 3d e6 d9 40 3d
       -0.16215704 -0.102852926 0.058514435 0.047082804
0000b0 12 b0 39 be b5 1f fa bc 7a 61 38 3e d0 59 a5 bc
       -0.18133572 -0.030532697 0.18005934 -0.020184427
0000c0 5b 45 b4 3d 76 b6 7d bd 06 a0 8d 3b 04 58 d4 bd
       0.08802291 -0.061941586 0.004322055 -0.1036835
0000d0 5a c5 ce bd 5b 6a 26 3d 70 4b ba bd 9a ee a3 3d
       -0.100962356 0.040628772 -0.0909642 0.08004494
0000e0 c2 05 bd bc 1c 79 da 3d e6 a6 3e 3e 7d 76 52 bb
       -0.023074035 0.10667631 0.18618354 -0.0032114082
0000f0 e5 8b 1c be 59 7a 35 3e 03 ea 08 3e e1 dc 83 bc
       -0.1528774 0.17722453 0.13370518 -0.016096534
000100 be e9 6c be 0a 35 30 3e a0 9b 1e 3e c6 a6 b8 3d
       -0.2313604 0.17207733 0.15489054 0.090161845
000110 19 3b a8 ba 41 2d 87 3c 16 bf 83 be 56 1f a3 bd
       -0.0012834995 0.016501071 -0.25731725 -0.07964961
000120 02 27 a4 bc 63 7d 5e 3e 82 7d b3 3d 01 39 c2 3d
       -0.020038132 0.21727519 0.08764173 0.09483529
000130 c3 9b 05 be cc 2c c3 3d 60 1c 00 be 47 57 cf bd
       -0.130477 0.09530029 -0.12510824 -0.10124069
000140 c9 f5 3f bc 3b 8f 35 3e 7b 2b f9 3c 46 8a 47 be
       -0.011716315 0.1773042 0.03041624 -0.19486341
000150 74 28 b1 bd 6c 68 77 3d ed bb 00 3e 50 04 68 bd
       -0.08650294 0.06040232 0.12571688 -0.056644738
000160 7e 10 f0 bd 4d 1f 08 3e 34 46 1f 3d 1f 3a b0 bd
       -0.11721896 0.1329319 0.03888531 -0.08604836
000170 8f e2 39 be c8 f9 98 bb a6 1a 82 3e df a0 65 3c
       -0.18152831 -0.004668448 0.25410956 0.014015405
000180 00 e9 79 bd 1a c8 16 be 5d 27 fc 3d ae c4 0b 3e
       -0.06101322 -0.1472477 0.123121955 0.13649246
000190 bc cf 26 be ee 38 c9 bd c7 5a 96 bd 92 4a 1f bd
       -0.16290182 -0.098253116 -0.07341533 -0.038889475
0001a0 33 67 81 be d4 bb 3f 3d cc 89 47 3e ad 90 f3 bc
       -0.25274047 0.046809986 0.19486159 -0.029732073
0001b0 f4 9a ac 3d 44 dd 85 bc 3c ce 03 3d 1a 5c 78 3d
       0.084279925 -0.01634086 0.032179102 0.06063471
0001c0 d1 3a 1d be 05 85 6a bd 0d 0e 32 3e 91 55 36 bd
       -0.15354468 -0.057255764 0.17388172 -0.044515196
0001d0 28 42 3f 3e 58 38 e4 bc c1 56 27 be 5a cd 1f bd
       0.1867758 -0.027858898 -0.16341688 -0.039014198
0001e0 ef 70 c8 bd 44 40 f6 3c 7e ab 1b bd 29 22 a7 bc
       -0.097871654 0.030059941 -0.038005345 -0.020402031
0001f0 c9 0c 85 3d 24 90 2b 3e b6 cd 47 3e c2 33 e7 bd
       0.06496579 0.16754204 0.19512066 -0.11289169
000200 f8 bc 61 3d ee 87 80 3b 61 2f 5a bc 91 bb 30 bb
       0.055111855 0.003922454 -0.01331696 -0.0026967267
000210 a4 1c 2f bd 41 65 ce 3d 52 1a 96 3d 44 b9 10 be
       -0.042751923 0.100779064 0.07329239 -0.14133173
000220 11 11 84 3d ae ad 37 3c 19 64 a7 3d ad 26 d6 3c
       0.06448568 0.011210842 0.08173389 0.026141489
000230 f2 86 2e 3d f6 b7 b6 bd 23 79 fc 3d 74 7e 29 3e
       0.042609163 -0.089218065 0.123277925 0.16552144
000240 38 41 40 be b2 2c e3 3d d6 ae 1a bd a0 25 ca bd
       -0.18774879 0.11092509 -0.037764393 -0.09870458
000250 85 f1 31 3c da c3 bf bc c4 fc 15 be f5 ae 57 3d
       0.010860805 -0.023408819 -0.14647204 0.052657086
000260 f6 a8 86 be ec 09 76 bc bc 34 63 bc e7 5d a6 bc
       -0.26300782 -0.015017014 -0.013867553 -0.020308448
000270 33 20 a8 3d b7 ae 88 3d 83 70 89 3d 5c ee 82 bd
       0.082092665 0.06673949 0.06710913 -0.0639312
000280 ea 10 a9 bb f5 42 d9 bd 3a 74 79 bd fe 0d 1c 3d
       -0.005159487 -0.10608474 -0.060901858 0.03809928
000290 8e fc 24 be 7f c4 2b 3d 59 88 31 bc 5e 33 25 3d
       -0.16111967 0.04193544 -0.0108357305 0.04033219
0002a0 5d 4e b1 bd b0 2f 10 be b0 a3 88 bd 35 57 84 3d
       -0.08657525 -0.14080691 -0.06671846 0.06461946
0002b0 5b b2 07 be 24 c8 07 be e9 8c b6 3d 57 ab 35 bd
       -0.13251631 -0.13259941 0.08913595 -0.044352856
0002c0 e9 99 0e 3e c0 4a 90 3d 2b 91 5f 3e a9 31 4a be
       0.139259 0.070455074 0.21832721 -0.19745506
0002d0 e3 47 5a bd 09 43 c2 3d f9 98 53 bd 2b 2d 24 3e
       -0.053291213 0.09485442 -0.051659558 0.16032855
0002e0 64 ef 58 bd 04 ed 88 bd 91 49 23 3e 87 1f 72 be
       -0.052962676 -0.06685832 0.15946032 -0.23644839
0002f0 bf 48 81 be 53 ca 90 3d 3f 6d db 3d 33 b6 cc 3d
       -0.25250813 0.0706984 0.107141964 0.09995689
000300 d4 f7 e3 bd c1 1a 88 3c ac 33 11 3c 4b 20 6f bc
       -0.11131254 0.01661432 0.008862417 -0.014595102
000310 10 ac 47 bd 46 8e 8e 3c 8d 6e 3a be 99 31 09 3e
       -0.048748076 0.017401826 -0.18206234 0.13397826
000320 97 51 44 bd 36 c6 12 be d2 6c ac 3d 05 8d 1f 3d
       -0.047929373 -0.14333424 0.08419193 0.038952846
000330 02 e0 71 3c 20 f6 39 3d 35 b4 8a 3d 67 35 3c bd
       0.01476288 0.04540074 0.06772653 -0.045949366
000340 4d d8 33 bd b9 93 16 3d 9f d0 e2 3d a1 45 8c 3d
       -0.043907452 0.036761973 0.110749476 0.06849218
000350 e2 e7 7a bc 04 1b 01 3e 1e 36 dd 3d 9f 28 44 3d
       -0.015314074 0.12607962 0.10801338 0.0478903
000360 c2 d2 7b bd 8a 85 6e 3c 4d c0 ce bd 16 a2 a6 3d
       -0.06148029 0.014558205 -0.10095272 0.08136384
000370 f4 0c b5 bc 3b 66 9e 3d c9 97 e6 3d 39 1d 0d 3e
       -0.022100903 0.07734343 0.112594195 0.13780679
000380 91 4b ab bc c3 eb 5f be 95 e3 34 bd 59 d8 e2 3d
       -0.020910056 -0.2186728 -0.04416235 0.11076421
000390 88 17 9a 3d 75 7e a2 3d e2 77 04 3e fd 97 ef 3d
       0.075240195 0.07934276 0.12936357 0.11698911
0003a0 b7 2f 05 be 9a 10 c2 3d 23 a0 b8 3c cb 7c 38 ba
       -0.13006483 0.09475823 0.022537297 -0.00070376386
0003b0 5a 0e 90 be c3 a6 61 bd 03 08 58 bc 4e 7a 13 3e
       -0.2813595 -0.055090677 -0.013185504 0.14402124
0003c0 13 eb 69 3d 33 85 c6 bd de c6 a2 3d c9 be e9 bd
       0.05710895 -0.096933745 0.07948087 -0.114133425
0003d0 2e e4 87 3d 4b 34 29 bc 82 9a 5b be 71 02 1c 3d
       0.06635319 -0.010327409 -0.21445659 0.038088266
0003e0 c5 47 b2 3d 9c da 54 bd af 61 99 bd 7c c8 24 bd
       0.08705095 -0.051966295 -0.07489335 -0.04023026
0003f0 0a c0 9b 3d 86 cb 21 3e 93 af 13 be 94 54 0b 3e
       0.07604988 0.15800294 -0.14422445 0.13606483

fc2.bias f4 [64]
000000 f4 3e 1a 3e f0 cf cb 3d d9 d3 ff 3d 3e b1 89 3d
       0.15063077 0.0995177 0.124915786 0.067232594
000010 62 25 85 3d 00 9c 7d bd 69 fd de 3d 78 d2 86 bd
       0.06501271 -0.06191635 0.10888178 -0.065831125
000020 76 bf 42 3d 66 c1 70 3c bb b1 33 bd 92 d5 0a 3e
       0.047545873 0.014694547 -0.04387067 0.13558033
000030 fe e9 11 bd 48 ac 5f bd a4 82 1a 3d 15 4e 16 3e
       -0.035623543 -0.05460766 0.037722245 0.14678223
000040 3c ff 82 3d c8 89 6c bd 0b 80 a1 3d 19 53 9b bd
       0.06396338 -0.057748586 0.078857504 -0.07584209
000050 a6 a4 83 3d eb 7a f8 3c 97 6c 6e 3d 00 39 8f 3b
       0.064278886 0.03033205 0.058209028 0.0043708086
000060 d1 d6 09 3e 5d 27 8e 3d 5b a9 5b bd fe 77 16 3e
       0.13460852 0.06941102 -0.053628307 0.14694211
000070 7e 75 c0 bd b5 9b 99 3d d9 6b 04 bd 4a 99 01 be
       -0.0939741 0.07500402 -0.032329414 -0.12656131
000080 ff 8d 9a 3c 46 58 e8 bc d5 a3 a1 3d 85 a1 06 3e
       0.018866537 -0.028362405 0.078925766 0.13147552
000090 1c eb df bb 75 69 0a 3c 41 f0 d4 bd 19 06 c4 3d
       -0.006833447 0.0084479945 -0.10397387 0.095714755
0000a0 db 0a 5c 3b 43 65 be bc 93 e8 e7 3c 2e 6a 36 bd
       0.0033575806 -0.023241645 0.028309142 -0.044534855
0000b0 5a 48 c3 3c b3 8c 9c 3d f1 b4 e6 3d f1 25 1f 3d
       0.02383821 0.07644024 0.112649806 0.038854543
0000c0 87 c3 10 3d d3 00 a6 bd ef 4d 94 3d 06 73 16 be
       0.03534272 -0.08105626 0.07241427 -0.14692315
0000d0 86 00 5a 3d 22 57 d8 bd ad 49 be bb b4 be 39 3b
       0.053223155 -0.10563494 -0.0058071227 0.0028342428
0000e0 9d 82 4f be 4b bd 33 3d dd 4e ad 3c ec 54 86 3d
       -0.20264669 0.043881696 0.021155769 0.06559166
0000f0 4f 56 e3 3d 74 75 50 bb 5a 93 95 3d 05 7c 15 3e
       0.111004464 -0.0031808289 0.07303496 0.14598091

fc3.weight f4 [10, 64]
000000 7b 3a 20 be fb 34 2d be 1f eb 82 be 0a b8 28 be
       -0.15647309 -0.16914742 -0.25570008 -0.16476455
000010 39 d6 50 bd 91 61 52 3b 2e 51 f7 3d 44 f0 a5 3d
       -0.05098555 0.003210161 0.12076031 0.08102468
000020 30 32 d2 bd 98 46 20 3e b0 0f 10 3e 52 dd e6 bd
       -0.10263479 0.1565193 0.14068484 -0.11272682
000030 75 dd eb 3c 04 a7 ba bd e9 f2 c9 bd 80 03 0b be
       0.028792122 -0.09113887 -0.098607846 -0.13575554
000040 bf 3e 38 be 53 e1 9b bd ff 9c 8d 3d 81 12 13 3e
       -0.17992686 -0.076113366 0.0691471 0.14362527
000050 d5 33 07 be e1 83 f5 3d 67 a4 64 be 1d 75 18 bd
       -0.13203366 0.119880445 -0.2232834 -0.037221063
000060 16 21 64 bd a4 aa 01 be f7 bb 73 3d 74 69 64 be
       -0.055695616 -0.1266275 0.05950543 -0.22305852
000070 58 9c 9f 3b 8f 70 bf 3d a5 52 c9 bd 4f 61 00 bd
       0.0048709325 0.09347641 -0.09830216 -0.0313428
000080 4d 07 98 be b3 60 e7 3d 75 67 9c 3d d1 77 a4 bc
       -0.2969307 0.11297741 0.0763692 -0.020076664
000090 2a ec f3 bd 0b 29 d9 bd b5 d7 69 be af 2a 42 be
       -0.11910279 -0.106035315 -0.22836192 -0.18961595
0000a0 98 b3 c2 3d 04 63 73 3d fc 73 09 3e 74 5d c0 bd
       0.09506911 0.0594206 0.13423151 -0.09392825
0000b0 1c 77 b6 bd e4 e3 51 be 0b bf 83 be 7c d3 97 3d
       -0.08909437 -0.2049709 -0.25731692 0.07413384
0000c0 ef 65 3f be b8 c1 2d 3d 4e ac 09 bc 25 81 2f bd
       -0.18691228 0.042421073 -0.008402897 -0.04284777
0000d0 31 dd fc bd bb b0 94 3e 17 33 32 3e 0d 11 37 be
       -0.123468764 0.29041085 0.17402302 -0.17877598
0000e0 b3 4d 15 bc 6e 0b 81 bd 1c 67 7d bd c5 47 24 3d
       -0.009112763 -0.06301008 -0.06186591 0.040107507
0000f0 3b 18 53 3d e0 c3 97 3d 10 52 17 3e 31 7f bd 3c
       0.05153678 0.07410407 0.14777398 0.023131939
000100 d3 59 83 be 23 bc 7f be 2a 33 5a 3c 65 5c ec 3d
       -0.25654468 -0.24974112 0.0133178625 0.1154106
000110 52 73 63 be 8b c5 dc 3d eb 5b f5 bd 8a e5 a7 be
       -0.2221196 0.10779866 -0.119804226 -0.32792312
000120 31 a9 6f bd eb fd 75 bd 9c f1 33 be fe 98 17 3e
       -0.058510963 -0.06005661 -0.17572635 0.14804456
000130 c9 c9 87 3d 06 23 86 bc 8d ca 12 3d 37 75 2d be
       0.06630284 -0.016374122 0.0358377 -0.16939245
000140 5b 9a 78 3e 2a 13 d6 3c 36 dc 54 be 7f c0 54 be
       0.24277632 0.026132185 -0.20787129 -0.20776556
000150 fc a1 40 3e 38 6b 32 be 2e e4 04 3e 05 4e 7f bd
       0.18811792 -0.17423713 0.12977669 -0.062330265
000160 26 66 1b be 0c 8e f6 3d dd 3a 85 bc 28 9b 4d be
       -0.15175685 0.12038812 -0.01626342 -0.20078719
000170 18 ff 90 bd 43 ac 3c be cb ee 41 3d 74 6b 82 be
       -0.07079905 -0.18425088 0.04734687 -0.25472605
000180 99 86 4b 3e 09 54 2c be de 31 27 be c9 60 36 be
       0.19875564 -0.16828932 -0.16327617 -0.17810358
000190 07 f3 be bc 80 3d ff bc 07 84 22 be aa b7 89 3d
       -0.023309244 -0.031157255 -0.15870677 0.06724484
0001a0 a4 85 08 3e 77 e5 b2 3d b8 4a f5 3c d6 48 38 be
       0.1333223 0.08735173 0.029942855 -0.17996535
0001b0 e6 c5 9b bd 7c dc b5 bd de 5a d8 3c 24 97 ad bc
       -0.076061055 -0.08879945 0.026410516 -0.021190234
0001c0 f3 c9 17 3e cc 44 63 bd ac 9c 4b bd 9c f0 6f bc
       0.14823131 -0.05548553 -0.04970996 -0.014644768
0001d0 67 42 3a 3e 92 01 8d 3c 24 65 11 be a5 59 fd 3d
       0.18189393 0.017212663 -0.14198738 0.12370614
0001e0 45 7c fe bd 3b e3 66 3d 5d bb 49 be 6a 8b fd 3d
       -0.12426046 0.056369048 -0.1970038 0.12380107
0001f0 df 12 8e bd b9 a9 3f 3e ac 05 51 be b9 0e ac 3c
       -0.06937193 0.18717088 -0.2041232 0.021003114
000200 c5 98 b7 3d 18 8b 0c bd c3 3c ac 3d 02 c3 45 3e
       0.08964685 -0.034312338 0.08410027 0.19312671
000210 d2 2a 43 bd a3 7d 4e bd 12 5c af 3a b2 77 cb bd
       -0.04764826 -0.050412785 0.001337888 -0.099349394
000220 33 a2 27 3e cd 71 18 3d a4 29 12 3e e3 d4 ac be
       0.16370468 0.037217904 0.14273697 -0.3375617
000230 c8 f5 25 bd da b7 85 3d 23 2d 74 be 19 f2 08 3e
       -0.0405176 0.065292075 -0.23845343 0.13373603
000240 9c eb 1a 3e b1 55 52 3c c9 22 43 bd e6 77 af 3c
       0.1512894 0.012837813 -0.047640596 0.021419477
000250 44 03 27 3e 71 83 9d bd 08 31 13 be 26 30 95 bd
       0.1630984 -0.07691086 -0.14374173 -0.07284574
000260 b7 08 f7 3d 36 62 9b bd b9 ec f8 3d 24 05 04 be
       0.12062209 -0.075870916 0.12154526 -0.12892586
000270 ef bd dc 3d 7b be b5 bd 55 cb 3a 3e 57 c6 a7 be
       0.107784145 -0.08874222 0.18241628 -0.3276851
000280 e7 29 02 3d 19 4e 2d bb c5 a3 34 be 0a f2 95 be
       0.031778242 -0.0026444255 -0.17640598 -0.29286224
000290 f4 60 84 3d 9a 62 a5 be 7b 11 1d bd aa 50 ae 3d
       0.06463805 -0.3230179 -0.03834675 0.08511479
0002a0 30 62 32 3e 35 6c c5 3d 46 2e d2 3d 53 52 eb 3d
       0.17420268 0.096397795 0.10262732 0.114903115
0002b0 c0 7f 15 3d a4 c7 96 bd 6e f4 20 be 0a 92 e1 3c
       0.036498785 -0.07362297 -0.15718243 0.027535457
0002c0 f8 f3 8a 3e b4 48 23 3c ac 75 9e 39 87 48 df 3d
       0.27139258 0.009966064 0.0003022378 0.10902505
0002d0 36 c5 32 3d d2 b3 c2 3d cc c0 bd bd 62 d1 9d bb
       0.043645106 0.09506954 -0.09265289 -0.00481622
0002e0 98 c0 9e bd 13 36 3f 3e 06 58 51 be 56 4a 0f be
       -0.07751578 0.18672971 -0.20443735 -0.139932
0002f0 cb 8c de bd 24 6e 81 be bb f0 8e bd d5 26 24 be
       -0.10866698 -0.25279343 -0.069795094 -0.16030438
000300 bf c2 20 be 39 58 07 be 0a 58 0e bd b0 8f 3f bd
       -0.1569929 -0.13217248 -0.03475193 -0.04676789
000310 07 e0 04 3d 69 2b 8a be eb fb 35 be 6a 4d 00 3e
       0.03244021 -0.26986244 -0.1777188 0.12529531
000320 07 cb 33 3e ec 94 8e 3d d7 a8 b7 3d 4d dd 9d 3d
       0.17557918 0.06961998 0.089677505 0.077082254
000330 12 2b 6e 3e 31 44 43 3e cd c0 53 3e 58 c4 fe bd
       0.23258618 0.19068982 0.20679016 -0.12439793
000340 e7 a8 f7 bc 2f 97 ee bd 33 04 d0 3d 77 e7 ca bc
       -0.030231906 -0.1164993 0.10157051 -0.024768574
000350 da 6c a2 bd 83 a5 d3 bc 84 49 14 3e 3c c5 d0 bd
       -0.07930918 -0.025835758 0.14481169 -0.101938695
000360 72 00 a7 bd 18 59 b8 bd 4b e5 27 be dc b6 2d be
       -0.08154382 -0.09001368 -0.16396062 -0.16964287
000370 c8 cb 0c be b9 ed c1 bd dd a8 db 3d 67 a2 34 3d
       -0.13749611 -0.0946917 0.107255675 0.04410019
000380 a0 6c 1b 3e b2 b5 ac 3d a4 1c 25 be 46 94 1f bd
       0.15178156 0.08433093 -0.16124207 -0.038959764
000390 a2 b8 bb 3d dd b3 b0 3d d1 e8 90 be 94 e8 17 3e
       0.09166075 0.08628056 -0.28302625 0.14834815
0003a0 e1 fc 4f be 4e fa a7 bd fc fc 25 be 36 6f 87 3d
       -0.2031131 -0.08202039 -0.16209787 0.06613009
0003b0 c8 64 a7 bc 67 22 cc 3d c6 44 6f be a9 f2 00 3e
       -0.020433798 0.09967499 -0.23366079 0.12592568
0003c0 2d eb 4f 3c d2 10 d2 bd 28 d6 65 be a8 fa 6a be
       0.012690348 -0.102571145 -0.22444975 -0.2294718
0003d0 90 16 18 be f6 a7 91 be da 95 d6 bc 74 f7 c4 3b
       -0.14852357 -0.28448457 -0.026194502 0.006010944
0003e0 89 9c 8e bc df 61 ce 3c cf 02 66 be e3 0f 91 bc
       -0.017408626 0.025193153 -0.22462009 -0.01770777
0003f0 e5 3e 0e be bd aa 8c bd c3 0d 07 be c4 4a 57 be
       -0.1389118 -0.06868503 -0.13188843 -0.21024615

fc3.bias f4 [10]
000000 4d 46 be bc 95 b4 30 bd 39 60 25 3d 91 f3 77 bd
       -0.023226881 -0.043140966 0.04037497 -0.060535017
000010 c6 e3 81 bd 24 6e 91 3d a8 d7 2c 38 da 98 b8 3d
       -0.063422725 0.07101086 4.120884e-05 0.09013529
000020 3a 14 ba bd 58 9b 84 b7
       -0.09085889 -1.5807964e-05
