Exercise 1/checkpoint.pth (torch, 439727 bytes, 6 tensors)

fc1.weight f4 [128, 784]
000000 06 85 99 3c 72 a8 eb 3c 9a 4a eb bc 0a 6a 9d 3c
       0.018740188 0.028766844 -0.028722096 0.019215602
000010 40 56 f9 3a d8 74 19 3c 38 63 6a bc b0 0b 54 3c
       0.0019022897 0.009366237 -0.014305882 0.01294224
000020 50 43 27 3c ba 19 8b 3c f0 eb 14 bb 38 5d 62 3c
       0.01020892 0.01698004 -0.0022723638 0.01381617
000030 42 38 10 bd 60 b2 ac 3a 33 34 e0 bc 2c fe b6 bc
       -0.0352099 0.0013175718 -0.02736864 -0.022337995
000040 c6 42 3e bc 66 2d 25 bc e5 1e a9 bc 70 50 f4 3b
       -0.0116126 -0.010081625 -0.020644614 0.007455878
000050 4a ec 87 3c 18 21 92 bb 9c fc 24 bc 60 1f 45 bb
       0.016592164 -0.0044595115 -0.010069992 -0.0030078515
000060 17 93 97 bc c4 f4 8e 3c ee 32 c4 bc 7c 90 b4 3c
       -0.018502755 0.017450698 -0.023950066 0.022041552
000070 85 cc b6 bc b7 2c 03 3d 26 8e 4c bc 58 7e 45 bc
       -0.02231432 0.032025065 -0.012485063 -0.0120540485
000080 4e d7 41 bc 6a eb 96 3c 98 f4 35 3c ce 79 ec 3c
       -0.011831118 0.018422801 0.011105679 0.028866675
000090 5f 2b 11 3d c8 ac d0 bb 86 66 f7 3c 9f 11 02 3d
       0.035441753 -0.0063682534 0.030200254 0.031755086
0000a0 c0 db 70 3c fc e4 84 3c d0 ea 96 3c a5 36 e0 bc
       0.01470083 0.01622247 0.018422514 -0.027369807
0000b0 d8 c8 bb 3b 4e 61 0c bd 7c 0e 63 bc b4 27 6b 3c
       0.0057307296 -0.034272484 -0.013858434 0.014352728
0000c0 cb f9 0c 3d 9c c7 d6 bc b8 4d 78 bc 38 b9 60 bc
       0.03441791 -0.026218228 -0.015155248 -0.013716035
0000d0 40 5a 45 3c 14 cd 7e bc b6 7b cb 3c fb 7c 05 3d
       0.012045443 -0.015551824 0.024839263 0.032589894
0000e0 68 0b e0 bc 48 da cd 3c a8 2e 69 3c 9c db 0c bd
       -0.027349189 0.025128499 0.014232315 -0.034389123
0000f0 68 5b e6 3b ff 02 0d bd f8 33 54 3c b0 ad 2c 3c
       0.0070299394 -0.034426685 0.012951843 0.010539457
000100 60 5b 01 bc 10 79 7a bb d0 4f d5 3c 6f 1e 09 3d
       -0.007895321 -0.0038219132 0.026039034 0.03347629
000110 20 bd 20 bb d0 07 56 3c 00 e6 d8 bb 33 39 ae bc
       -0.002452679 0.013063386 -0.006619215 -0.02126751
000120 20 d9 19 3c 20 9f 02 bb 98 43 9b 3b a8 0f cb bc
       0.009390146 -0.0019931272 0.0047382824 -0.024787739
000130 83 66 0c bd c0 74 df 3a f4 00 8b 3c b0 4c a9 3c
       -0.03427745 0.0017048344 0.016968228 0.02066645
000140 5c 14 fb bb 35 14 a7 bc 08 5f e7 bb 7a ea b1 3c
       -0.007662339 -0.020395378 -0.007060889 0.021718252
000150 0e b7 d8 3c ae 6e c1 bc b8 c8 0e 3c 98 68 96 3c
       0.026454475 -0.023612347 0.008714847 0.018360421
000160 ca 0d 0f bc 96 ec b9 3c c0 c8 b3 bb 94 e7 5a 3c
       -0.008731315 0.02269582 -0.0054865777 0.013360877
000170 80 fa 07 3b 25 25 ea bc 5c a7 98 bc 9c d5 45 bc
       0.0020748675 -0.028582165 -0.01863449 -0.012074854
000180 00 2f 6b 3c e0 1f 20 bc b8 78 e6 3b d8 7f ba bc
       0.014354467 -0.009773225 0.0070334338 -0.022766039
000190 75 ff b2 bc 90 04 0e bb 68 6f 21 3c 50 bd ae 3c
       -0.021850327 -0.00216702 0.0098532215 0.021330506
0001a0 9a 3c c4 3c f8 29 25 bc 46 a6 2c bc 6c 8b 0c bd
       0.023954678 -0.010080807 -0.01053769 -0.03431265
0001b0 27 d9 0d 3d ad 39 01 3d 22 b6 f4 3c 50 a0 61 bb
       0.03463092 0.031549145 0.029872004 -0.003442783
0001c0 5f ff 03 3d 17 6c 9e bc da 05 b6 bc 97 da 9d bc
       0.032225963 -0.01933865 -0.022219587 -0.01926927
0001d0 60 ab 34 bb c6 f2 fc 3c 00 94 a4 3b 02 62 e9 3c
       -0.0027567968 0.030877482 0.005022526 0.028489117
0001e0 4d d1 02 3d 6e f0 78 bc 63 67 9b bc 10 6e 6e bb
       0.031937886 -0.015194042 -0.018970197 -0.003638152
0001f0 e2 36 80 3c 70 1f d4 3c 6e 4d af bc 7e 78 d6 3c
       0.01565117 0.025893897 -0.021399226 0.026180502
000200 20 bf 6c 3b 68 58 86 bb c3 d5 0c 3d dc 22 52 bc
       0.0036124662 -0.0040998943 0.034383547 -0.012825694
000210 ce 3f 48 bc 72 6e 17 bc 7c da cd bc cc 9c 9f 3c
       -0.0122222435 -0.009242641 -0.025128596 0.019483946
000220 60 0d 85 bc 60 0a 99 ba 00 aa 36 3c f8 a3 73 3c
       -0.01624173 -0.0011676066 0.01114893 0.014870636
000230 88 d0 27 3c 9c e7 ab bc 1e c6 86 bc e0 95 59 3c
       0.010242589 -0.020984463 -0.016451892 0.013280362
000240 12 d6 b6 3c 51 db 05 3d c0 d1 52 ba de 07 12 bd
       0.022318874 0.03267986 -0.00080421194 -0.035652034
000250 54 8f da bb 9c e4 16 bc 6a 32 a8 bc 54 dc 4e 3c
       -0.006669918 -0.009209778 -0.020531852 0.0126257725
000260 e5 93 de bc 28 86 dd bc bc f8 58 bd e5 8f 2c bc
       -0.027170131 -0.02704151 -0.052971587 -0.010532354
000270 b7 47 4a bc d9 bb ca 3b 7b 78 19 3d f8 15 5e bc
       -0.0123462 0.006186944 0.037468415 -0.013555042
000280 c6 12 b8 3c 80 53 4d 3b 30 b3 45 3b 32 89 1d bc
       0.02246989 0.0031330287 0.0030166619 -0.009615229
000290 54 2a e8 bb 9e 46 a4 bc 38 e6 9d 3c 2a 5c b0 bc
       -0.007085124 -0.020053204 0.019274816 -0.021528322
0002a0 58 40 0f bd 00 05 20 3c 48 61 b7 bc 85 0d 93 bc
       -0.034973472 0.009766817 -0.022385255 -0.017950783
0002b0 ca 66 b7 3c f3 8d cf bc 52 e5 8a 3c 1a 7d f7 bc
       0.02238788 -0.025336241 0.016955052 -0.03021102
0002c0 37 5e 29 bd ab 2a 10 bc cb b3 d2 bc 58 5c 1e 3b
       -0.041349616 -0.008799235 -0.025720498 0.0024163928
0002d0 ee 39 02 bc 32 07 18 bd b5 25 e5 bc fb 1a 2c bd
       -0.007948382 -0.037116237 -0.027972082 -0.042017918
0002e0 69 2c c3 3c 56 e2 f4 3c 86 5d 6c 3c 4a 34 9b bc
       0.023824887 0.029893082 0.014426595 -0.018945832
0002f0 15 72 b6 bc 78 c7 54 3c 1e 9a e5 3c 70 d7 38 bb
       -0.022271195 0.01298701 0.02802759 -0.0028204583
000300 10 db 08 3c 55 d2 ea bc ca bf 62 bc 65 ce fb bc
       0.00835301 -0.028664747 -0.013839671 -0.030738065
000310 24 7e bb bb 12 33 9a 3c 76 6b 0d bd ce f8 e9 bc
       -0.0057218242 0.01882318 -0.03452631 -0.028561022
000320 23 6f 09 bd 67 89 56 bd 57 9d 47 bd 4a 82 82 3c
       -0.033553254 -0.05237713 -0.048734035 0.015931267
000330 be 6d 8b bc a0 d2 ec bc ae 70 3a bb 05 a5 a9 bc
       -0.017020103 -0.028909028 -0.002844851 -0.02070857
000340 d0 c6 90 3c f8 8a 36 bd 0b dc 56 bd ac af 90 3c
       0.017672926 -0.044566125 -0.052455943 0.017661892
000350 76 f8 d4 3a 30 10 54 bd 1e c5 fe bc 2c a4 87 3b
       0.0016248364 -0.05177325 -0.031099852 0.004139444
000360 97 d1 3f 3b 29 4a b5 bc 7e 04 9a bc 60 de d5 bc
       0.0029269212 -0.022130089 -0.01880097 -0.026107013
000370 00 24 25 3a 7e 16 dc bc a0 31 12 bd 20 78 09 bc
       0.0006299615 -0.026866194 -0.035691857 -0.008390456
000380 23 f7 9b bc f8 d9 a7 3c 8a dd 50 3b 9e 1d 66 3c
       -0.019038742 0.020489678 0.0031870329 0.014045147
000390 9d 10 ef bc 5e 4f 8b 3c 0b 47 19 3c 3f 4e c6 bc
       -0.029182727 0.017005619 0.009355317 -0.024207233
0003a0 9f 85 09 bd 1f 10 2d bc 0b ff d7 bc e4 93 49 bd
       -0.033574697 -0.010562926 -0.026366731 -0.049213305
0003b0 e6 e1 a3 bc 19 d5 06 bd c8 30 5a 3c 7e f1 88 ba
       -0.020005178 -0.03291807 0.013317294 -0.0010447947
0003c0 b1 92 f6 bc 05 03 de 39 c1 c7 43 bd 78 57 1d bc
       -0.030099245 0.0004234539 -0.047797922 -0.009603374
0003d0 91 02 de bc 4c a8 b7 bc 92 f1 6e bc 84 90 0e bd
       -0.027100833 -0.022419117 -0.014583962 -0.03480579
0003e0 e0 c3 1e bc ad 71 00 3d 16 92 fa 3c 06 0b be 3c
       -0.009690255 0.03135841 0.030587237 0.023198616
0003f0 50 4b 28 bb dc ab b7 3c 47 e1 be 3b e7 52 e1 bc
       -0.0025679655 0.022420816 0.005825195 -0.027505351

fc1.bias f4 [128]
000000 19 0b fa bb f7 00 1c 3e d8 89 80 bd b5 d1 91 3d
       -0.0076307175 0.15234743 -0.062762916 0.071200766
000010 ac 7b d3 bd 88 1b 1c bd ac 5d 1e 3e df 3e 54 3d
       -0.10326323 -0.038112193 0.1546542 0.05181777
000020 f3 03 73 3d aa 88 90 ba b9 4b b1 bd a2 42 27 3e
       0.05932994 -0.0011027057 -0.08657021 0.16334012
000030 e8 0f 40 bc 4f c4 6f 3b 2c 7d 95 bd 5c d7 80 bc
       -0.011722542 0.0036585515 -0.07299265 -0.015727691
000040 b9 1d 02 be a6 56 bc bc bc 09 c6 bb de e9 e6 bc
       -0.12706651 -0.022990536 -0.006043641 -0.028187688
000050 cc 6f 3b 3c ce 0e 54 3d f8 8d 9b bd 71 66 23 3e
       0.011440229 0.05177193 -0.07595438 0.15957047
000060 52 06 e5 3d c6 4b bc 3d fc b0 a4 bd fe 1a 3a bd
       0.11182846 0.0919414 -0.080415696 -0.045435898
000070 31 2d 14 bd 90 57 f9 bc c9 b6 de bd 51 ce b4 3d
       -0.03617591 -0.03043726 -0.10874707 0.08828414
000080 db c7 22 3e 22 be ff 3d 9e f0 c5 3c cc 25 94 bc
       0.15896551 0.12487437 0.024162587 -0.01808443
000090 ef c5 a8 3c 07 2a 85 3d b4 f9 64 ba 67 05 17 3b
       0.020602195 0.06502157 -0.00087347184 0.0023043992
0000a0 de 02 f2 3d da d7 32 bd 78 e2 b8 3d 3a 49 c9 3c
       0.11816953 -0.043662883 0.090275705 0.02457105
0000b0 99 fb a1 3d 76 98 8a 3d 61 6d 89 bb a9 6e 06 3e
       0.079093166 0.06767361 -0.004193947 0.13128151
0000c0 ab 8b bf 3d 0d fa a2 3d 85 0b ac bd 02 e1 b5 3c
       0.093528114 0.0795785 -0.08400635 0.022202019
0000d0 9d 0d 65 3c 24 5d 92 bd 4e a9 d8 bc 95 a6 18 3d
       0.013980296 -0.071466714 -0.026447918 0.03726824
0000e0 66 b7 e9 bc 02 13 31 3c e3 77 c5 3d 89 24 a5 3d
       -0.028529834 0.0108077545 0.09642007 0.08063609
0000f0 2a 09 0e 3e dc 6a 02 3d 46 e0 da bd d9 81 09 bd
       0.13870683 0.03184019 -0.10687308 -0.033571098
000100 8c 20 0a 3e 4e ba 9b 3d 5e bb 49 bd 08 a3 3f 3d
       0.13488978 0.07603894 -0.049250953 0.046786338
000110 ac 14 a8 3d c3 15 d5 3c 85 a8 bd 3d 17 15 5f bd
       0.08207068 0.026011353 0.09260658 -0.054463472
000120 85 df 56 bd 3d 09 ee 3d dc 8d 88 3d d6 54 ac 3d
       -0.05245926 0.11622856 0.066676825 0.08414619
000130 f2 c4 94 3d 36 ed 53 bc 7c fc 96 3d dc a1 25 3d
       0.07264127 -0.012934973 0.07372376 0.040437564
000140 d7 3d df 3b 14 95 be 3d 9c bd 74 3d 21 5c 0f bd
       0.006812792 0.09305778 0.059751138 -0.03499997
000150 a9 7f a7 3d f1 8d a6 bc 98 77 4e bd 51 f8 7b 3a
       0.08178646 -0.020331355 -0.050407022 0.0009611892
000160 78 1d aa 3d d1 05 11 3e 6f 3e 5f bd 63 b3 39 bd
       0.08306402 0.14162375 -0.0545029 -0.045337092
000170 5a da 93 bd 5b 9b 26 bd 1e d6 2e bd 4b 23 1a bc
       -0.07219382 -0.040675502 -0.042684667 -0.009407829
000180 46 4c 54 bd 86 e0 76 3d b3 76 9e 3d b8 0a 02 3e
       -0.051830553 0.060272716 0.07737484 0.12699401
000190 24 4f 60 3d 27 0c 6f 3d b0 f1 ad 3b fd c7 0a 3e
       0.054762974 0.0583612 0.0053083524 0.13552852
0001a0 bd 40 d4 bc c2 80 8d bd 95 38 26 bd 4c b0 8e bb
       -0.025909776 -0.06909324 -0.040581305 -0.0043545123
0001b0 fb c3 6e bc 26 c6 88 3c c7 0e 51 3c 6b 69 d2 bd
       -0.014573093 0.016696047 0.012759871 -0.10274013
0001c0 b2 64 bf bc 71 72 76 3c 12 c5 47 bd c4 36 bc 3d
       -0.023363445 0.015041933 -0.048771925 0.09190133
0001d0 a6 f1 8a 3d d6 a9 83 bd d5 5a 15 3d 2e c4 ca 3c
       0.06784372 -0.06428878 0.036463577 0.024751749
0001e0 35 92 b5 3b df 5b 4a 3c 36 f6 41 bc cf 26 89 3d
       0.005541111 0.012351005 -0.011838486 0.06696855
0001f0 60 88 8d bc 9f da 76 3b 06 23 5b 3d 2e bf 24 3d
       -0.017276943 0.003766693 0.053500198 0.040221386

fc2.weight f4 [64, 128]
000000 23 e9 a5 3d b8 2d a4 bc 6c 73 b3 3b bf 81 a8 bc
       0.08101108 -0.020041332 0.005476406 -0.02056968
000010 65 36 af bd 22 6a 72 3d 31 9d f3 bd 41 9b 88 bd
       -0.08555297 0.059183247 -0.11895216 -0.06670237
000020 fb 42 a2 bd 9a 21 19 3c b8 44 81 bd 7e 07 19 bd
       -0.07922932 0.00934639 -0.06311935 -0.03736066
000030 c8 7e 44 bb dc 57 17 3d 98 7e 95 bd 17 49 90 3d
       -0.0029982794 0.036949024 -0.072995365 0.07045191
000040 85 89 43 ba 36 f7 f9 bc 08 99 68 3c be bd 78 bd
       -0.00074591517 -0.030513387 0.014196642 -0.060727827
000050 74 e5 9b 3b de 38 36 bd 90 f4 b1 bd d5 a7 09 3d
       0.0047575776 -0.044487827 -0.08689225 0.033607323
000060 59 98 ca bb b8 31 07 be 46 25 e8 bd 29 c1 3f bd
       -0.006182712 -0.1320256 -0.11335234 -0.04681507
000070 41 e0 15 bd d5 b0 8c bc af f9 73 bc 11 a7 3f bd
       -0.03659082 -0.017174164 -0.014891072 -0.046790186
000080 85 68 57 bc 36 93 cf bd 6a 63 8e bd 8f ca 77 3d
       -0.013147478 -0.101355 -0.069525555 0.06049591
000090 10 dc 87 bc 74 9a d5 bd 2c ae b0 bc 25 b2 12 be
       -0.016584426 -0.1042985 -0.021567427 -0.14325769
0000a0 87 19 45 3d 91 02 97 bd bc d6 c1 bc 77 21 6d bd
       0.048120048 -0.073735364 -0.023661964 -0.057893243
0000b0 e4 26 16 be 87 b2 08 bd 2a 60 33 bd 5c 86 8c 3c
       -0.14663273 -0.033373382 -0.04379288 0.017153911
0000c0 8b e8 4e bd 05 87 83 bd 3c 43 98 bc f2 56 b4 bd
       -0.05051474 -0.06422237 -0.018586747 -0.08805646
0000d0 5e 17 d7 bd fd fa 9d bd 44 28 86 3c 7b 0e 64 bd
       -0.10502504 -0.07713888 0.016376622 -0.055677872
0000e0 ce 7a 9c bd ae ab 22 3c 7e 0b c2 bd 5b 55 21 bd
       -0.07640611 0.009928627 -0.09474848 -0.039388042
0000f0 a0 ae 86 bd 9a 13 6a bd d4 0a 96 bd 98 86 2b bd
       -0.06576276 -0.0571476 -0.07326284 -0.041876405
000100 5b 0b 46 bd 22 52 be bb 7b ba 8b 3d 45 b6 0e bd
       -0.048350673 -0.005808131 0.06822678 -0.034841795
000110 07 cf e7 bb ab 2e 6c 3c 81 f0 03 3d 39 68 9e bb
       -0.00707424 0.014415423 0.032211784 -0.0048342017
000120 55 70 19 be 0f f7 66 bc ce 32 46 bd 41 93 18 bd
       -0.14984258 -0.014096989 -0.048388295 -0.037249807
000130 64 5e 99 bc 60 79 52 bb 31 84 2b bd 0c 26 11 be
       -0.018721767 -0.0032115802 -0.041874114 -0.1417467
000140 e1 a0 67 bc 40 01 21 3b 7a 2a 8e 3d 5e 17 95 bd
       -0.014137478 0.0024567395 0.069416955 -0.072798476
000150 47 2f ae bd 88 d9 41 ba 13 c3 e9 3c 09 4a 13 3d
       -0.08505111 -0.00073947804 0.028535401 0.035959277
000160 9e 7b c9 bc 2c d5 68 bc 31 5a 0f bd 37 b2 0c be
       -0.024595078 -0.01421098 -0.034998123 -0.13739859
000170 08 ff 94 bd a1 64 e7 bc 0b a6 e9 bb d5 d6 cd bd
       -0.07275206 -0.028246226 -0.0071303896 -0.100507416
000180 bd 0a 8e 3d 15 c8 79 3d 84 ac 90 bd 80 39 21 bd
       0.06935642 0.06098183 -0.07064155 -0.039361477
000190 9f 3a 9c bd 71 53 e2 bb e3 83 ec bd 78 44 9b 3c
       -0.076283686 -0.0069069196 -0.11548593 0.018953547
0001a0 5e 8c 7b bd e4 2f a7 bd a9 2e b1 3d f9 15 05 3d
       -0.06141316 -0.08163431 0.08651478 0.032491658
0001b0 bf ac 45 bd 61 27 2e bc 6a b2 26 3d 0a fa c0 bd
       -0.048260447 -0.010629506 0.040697493 -0.09422691
0001c0 7f a4 af bd fe 5c 86 bd 34 7e 95 3c 97 61 b1 bd
       -0.08576297 -0.065607056 0.018248655 -0.08661192
0001d0 bb c0 05 bd ec e2 bb bc c3 99 16 3c 85 19 1b be
       -0.032654505 -0.022935353 0.009191933 -0.15146454
0001e0 65 ca 11 be 7e 59 88 bd a3 04 b3 bc d6 dc 52 bc
       -0.14237364 -0.06657694 -0.021852797 -0.012870034
0001f0 27 02 b1 bd ae af 7e 3b 66 ad b3 bd b3 30 81 bd
       -0.08642989 0.0038862037 -0.087733075 -0.06308117
000200 1e d5 25 bd 1f df 82 be 8e c7 6a be 5b f6 a6 3d
       -0.040486448 -0.25560853 -0.22927687 0.08152457
000210 b9 19 6b be 2b 17 22 3e 94 32 97 3c 68 d9 8b bc
       -0.22959031 0.1582915 0.018456735 -0.01707144
000220 b5 e9 38 3c aa fb 59 3d dc 2a 66 bd 20 4d cd 3e
       0.011286189 0.05321852 -0.056193218 0.40097904
000230 50 e3 f7 3d 52 64 df bd eb 72 67 3c c7 4d 38 3c
       0.12103903 -0.109078065 0.01412652 0.011249012
000240 69 22 65 bd c9 d4 35 bd 23 21 43 3d 89 1a 08 3e
       -0.05594102 -0.04439238 0.047639024 0.13291372
000250 81 48 da bd ac 3a 85 3e 02 c0 98 3d ce 95 35 be
       -0.1065836 0.26021326 0.074584976 -0.17732927
000260 2f 9d 58 3e 4d be 1b be fc f4 90 3c 91 76 8b be
       0.21153711 -0.15209313 0.017694943 -0.27238896
000270 5f a5 a2 3c d1 f1 a2 bd 1f 3c 3e bd 5e b0 f6 3d
       0.019854246 -0.07956279 -0.046444055 0.12045358
000280 be 7f d2 3e e9 ec c5 bd b8 d5 66 3e 65 60 29 3e
       0.41113085 -0.09664328 0.22542465 0.16540678
000290 3b 7a 95 3d a7 96 62 3d 28 9e 05 bd 19 0c ab 3d
       0.07298704 0.055319455 -0.032621533 0.08351917
0002a0 cf cf c5 3d 84 e2 8b be 7c 5a 20 3d 49 cd 2f be
       0.09658777 -0.27321255 0.039148793 -0.17168154
0002b0 53 b9 a2 3d 08 50 be 3e 5f 4e 83 3e 4e 40 cd 3d
       0.07945504 0.37170434 0.2564573 0.10022031
0002c0 f7 ea b9 3d 4e ad 8a 3b 01 93 eb 3d a1 4d e1 bd
       0.09078019 0.0042320853 0.11502648 -0.11001135
0002d0 8d 2b 2d 3e 33 8d 5d bc d0 1e 4c bd d5 2e 95 3d
       0.16911145 -0.013522434 -0.049834073 0.07284323
0002e0 97 c1 0b bd b0 0a 2d 3e db cb ab 3e 04 de 7b 3e
       -0.03412017 0.16898608 0.33553967 0.24596411
0002f0 7a 49 42 3e cd ab fc bb cb f2 5e be e8 66 05 be
       0.18973342 -0.00771091 -0.21772306 -0.13027537
000300 03 70 c8 3d a0 34 dd 3d b0 ee 46 bd 86 4a 5e 3e
       0.097869895 0.10801053 -0.048567474 0.21708116
000310 f9 41 1f 3d 11 da 69 3e de ea 11 3e d8 42 b4 bd
       0.038881276 0.22837092 0.14249751 -0.08801812
000320 b9 89 ba bd b7 9c 6f 3d a9 72 0f 3c 30 51 6c 3e
       -0.091083 0.058499064 0.008755364 0.23077846
000330 8a 9e 75 3e 2a 23 d0 bd 75 eb 53 bd ca db 0b 3e
       0.23986259 -0.10162957 -0.05173822 0.13658062
000340 a7 fc 31 3e 43 24 60 3d 9e f8 97 bc b1 11 18 3d
       0.17381535 0.054722082 -0.018551167 0.037126247
000350 c4 53 9d 3d d6 d6 35 3c c0 52 20 b7 8b 8d 74 be
       0.07681993 0.011098584 -9.55601e-06 -0.2388212
000360 13 ba 8c bd c4 a5 6c bd 6f 61 16 be f8 56 88 bd
       -0.06871428 -0.057775274 -0.14685605 -0.06657213
000370 98 70 9d bd 50 1e 1f be 99 21 94 bd 5d 4c 14 3d
       -0.07687491 -0.15538907 -0.07232971 0.03620564
000380 5b cc c6 bd ee 80 79 be ae 63 33 3e ef ff df 3d
       -0.097069465 -0.24365589 0.17518494 0.10937487
000390 85 97 03 3e 0d 64 26 3e a9 d2 56 bd 05 d9 8d 3e
       0.12850769 0.16249104 -0.052446995 0.27704635
0003a0 e2 8d bd 3d 66 d9 53 3e 5d b3 7c 3c 73 0a 13 be
       0.092555776 0.206884 0.015423623 -0.14359455
0003b0 cb cc 06 bd e3 9f b9 be aa e8 02 3d 43 e4 0f 3d
       -0.03291015 -0.36254796 0.031960167 0.035129797
0003c0 36 d4 5b bd 45 55 f5 3c aa f0 40 bd 57 97 b5 bb
       -0.053669177 0.029947886 -0.047104515 -0.0055417228
0003d0 1d 06 d9 3d 94 2c 7a bd dc a3 98 bc fe fc f0 3d
       0.10596869 -0.06107767 -0.018632822 0.117670044
0003e0 5a fd f4 3d a5 0a 0d 3e e3 4c 22 be 93 86 55 3e
       0.119623855 0.13773592 -0.15849642 0.20852117
0003f0 98 d2 81 3a 66 1c bb bd 13 8a 7e bd 9a ac d3 bd
       0.0009904681 -0.09136276 -0.062143397 -0.103356555

fc2.bias f4 [64]
000000 76 5a ed bd 36 b6 79 3e 7c 25 48 3e 10 e7 8f 3d
       -0.1158952 0.24385914 0.19545549 0.070264935
000010 81 1d 2f 3e e1 2c 63 bd 0f a8 7e bc 18 ae b3 3c
       0.17101099 -0.05546272 -0.015542998 0.0219336
000020 22 64 a8 bc f6 6c 86 bd ba be 1f bd f3 42 b4 3d
       -0.02055556 -0.065637514 -0.03900025 0.08801832
000030 ac fa 9f 3b 3d e1 ae bc 41 76 8a bd 40 33 6d 3d
       0.0048821773 -0.021347636 -0.067608364 0.057910204
000040 64 da c5 bc bc 7b 34 3c 35 f4 fa bd 4c b1 9e 3d
       -0.024151988 0.011015829 -0.1225361 0.077486604
000050 00 f6 cc 3c 3b fe ab bc 49 9e a8 bd 41 a1 13 bd
       0.025019646 -0.02099525 -0.082333155 -0.036042456
000060 a3 a3 da 3d da 9e d5 bd d1 81 e7 3d 66 5c 87 3d
       0.106757425 -0.10430689 0.113040574 0.066094205
000070 85 e0 a8 3d 9c e1 86 3c b8 23 34 3d 7e 02 23 3e
       0.08245949 0.016465 0.043979377 0.1591892
000080 5f ff 9a bd 20 5c 9c 3d ae 4f 89 3c 68 7f 7e 3d
       -0.075682394 0.07634759 0.016761627 0.062133223
000090 55 32 80 bd 81 44 a2 bd e6 92 c4 3d e3 cf 1e bd
       -0.062596 -0.07923222 0.09598331 -0.038772475
0000a0 c9 b2 5d 3e 8a 97 77 3d 89 be 00 3e 4b 8d d3 bd
       0.21650232 0.060447253 0.12572683 -0.10329684
0000b0 c9 ed e8 3c 34 04 c6 bd 1b 7a 12 3e c9 47 7d 3c
       0.028433697 -0.096687704 0.14304392 0.015459009
0000c0 16 47 0c bd 0b 32 f2 3d 34 6b f1 bc 2a 57 65 bd
       -0.03424748 0.11825951 -0.029470064 -0.05599133
0000d0 3d ef a5 bd ec cf a2 ba 5f 24 9c 3d d4 91 e4 bb
       -0.08102272 -0.0012421585 0.07624125 -0.006975392
0000e0 47 5a 24 bd e7 db 54 3d ef a1 fa 3d 38 97 df bc
       -0.040125158 0.051967528 0.12237918 -0.027293786
0000f0 28 95 e8 bd 9f 29 10 be 96 da a5 3c ed 44 c0 3b
       -0.11356574 -0.14078377 0.020245831 0.0058675916

fc3.weight f4 [10, 64]
000000 19 22 18 bd 3b 1e 35 be 90 6f 15 be 82 a4 51 3e
       -0.037141893 -0.17687313 -0.14593339 0.20472911
000010 e6 f1 57 bd 4f d2 ea bd 54 b6 1b 3e db 8d b4 3d
       -0.052720927 -0.114658944 0.15206271 0.08816119
000020 9e f0 1c 3d a3 32 14 3e 09 5d 86 bd 50 24 2d be
       0.038315408 0.14472441 -0.06560714 -0.16908383
000030 d7 0c 19 bd 95 c7 6e be f2 52 4b 3e 6a 08 7d be
       -0.03736576 -0.23318322 0.1985586 -0.24710241
000040 80 1d ac 3d eb ee c0 bd 8f c1 f3 bd 46 c6 90 3d
       0.08404064 -0.0942057 -0.11902153 0.07069068
000050 87 67 d9 3d ac 7e cf 3d 95 67 02 3e 4a 55 36 bd
       0.106154494 0.101315826 0.12734826 -0.04451493
000060 c8 71 52 3d 2d d5 69 be ea 7a 67 3d 19 56 de bc
       0.05137804 -0.22835226 0.056513704 -0.027140664
000070 e2 39 93 bc 1f 69 a4 3c 36 d6 b9 3d d9 51 97 bd
       -0.017971937 0.020069657 0.090740606 -0.07388658
000080 4f b2 ca 3c 88 23 21 3e d6 7c 4d 3d fa 5b 7d be
       0.024743227 0.1573621 0.05016788 -0.24742118
000090 cb c1 03 3d 22 b8 00 be 4d 22 24 be 80 f6 5b be
       0.032167237 -0.12570241 -0.1602871 -0.21480751
0000a0 ec 14 c2 be 68 37 aa 3c b7 34 a0 bc b3 b1 2f be
       -0.37906587 0.020778373 -0.019556386 -0.1715763
0000b0 fa b2 27 be 98 77 f0 3d fd 73 32 be 11 41 41 be
       -0.16376868 0.11741561 -0.17427059 -0.18872477
0000c0 02 96 4a 3e d8 c4 d5 bd c9 0f bd 3a 66 c7 10 3d
       0.19783786 -0.104379356 0.001442426 0.03534641
0000d0 89 bf 15 be 3e f2 3f 3e 8e 01 bb bd 39 dc a0 3d
       -0.14623846 0.18744752 -0.09131156 0.07854504
0000e0 07 29 30 3e 38 ff ce bc e6 bd 0d 3e 27 ca 00 3e
       0.1720315 -0.025268182 0.13841972 0.12577115
0000f0 bc 51 07 be ca dc 2d 3e 1d e0 d3 3d 22 4a bc bd
       -0.13214773 0.16978756 0.103454806 -0.09193827
000100 d3 d8 be 3d e8 83 83 bd e3 e2 21 be 8a 0a 39 bd
       0.093187 -0.064216435 -0.15809207 -0.045176066
000110 ad 65 f7 bd b6 71 58 be 3c bd b6 bb c6 72 d0 3d
       -0.1207994 -0.21137127 -0.0055767577 0.10178141
000120 02 a5 7f bc f8 39 6e be 78 e0 90 3d e8 96 2e 3d
       -0.015603306 -0.23264301 0.07074064 0.042624384
000130 47 b5 17 3d 6a 03 2a 3e 48 bb 5c be 58 b7 26 bd
       0.037038114 0.16602865 -0.21555817 -0.040702194
000140 7b af 55 be ba a7 3f 3e ff 0a 8d bb dc a0 92 3d
       -0.20867722 0.18716326 -0.0043042894 0.07159588
000150 a3 16 8d 3d 76 e4 38 be cc 20 c5 3c f2 3d da 3d
       0.06889083 -0.18055901 0.02406349 0.106563464
000160 bf 02 63 be a5 94 13 3b a5 2b 5d be 9c 06 59 3e
       -0.22169016 0.002251902 -0.2159868 0.21193928
000170 05 70 79 bd 1d 2a 23 be 5c fb cc bd 21 16 47 3e
       -0.060897846 -0.15934034 -0.100088805 0.19442035
000180 56 75 98 bd ca 62 77 bd 51 41 44 be 02 72 d1 3d
       -0.07444255 -0.060396947 -0.19165541 0.102268234
000190 cf e6 76 bd 06 c0 e7 3b 31 e2 e0 bd 01 82 40 bd
       -0.06027871 0.0070724515 -0.109806426 -0.04699898
0001a0 37 34 85 3e d3 d4 80 3d 05 33 2c 3e f2 02 41 be
       0.260164 0.06290593 0.16816337 -0.1884878
0001b0 ad 1c 9e be 7f cc e0 bb 0e dd 3f 3e 8b 66 11 be
       -0.30881253 -0.0068603153 0.1873667 -0.14199273
0001c0 b5 5f 9c bd 9e cd 86 3d 61 02 75 bd 17 c8 b5 bd
       -0.07635442 0.06582187 -0.05981672 -0.08876055
0001d0 6c 4f 48 3b 66 d7 21 be af fe 33 3e b4 35 62 be
       0.0030564917 -0.15804824 0.17577623 -0.22090799
0001e0 32 2d 2e bc d8 61 33 be 80 f8 96 bd 5b bc 3b bd
       -0.010630893 -0.17517793 -0.07371616 -0.045833927
0001f0 1d 57 87 be 3c 2d 86 be 7d 6e 66 be 23 f1 de bd
       -0.2643365 -0.26206386 -0.22503085 -0.10885837
000200 4a 1c af 3c ab aa 67 3d 55 8a 18 be 0b 86 40 3d
       0.021375794 0.056559246 -0.1489652 0.047002833
000210 6a 94 85 be 3a 84 bf bd d9 64 51 3e 9f d6 f8 bd
       -0.26089793 -0.09351392 0.20448627 -0.12150311
000220 a9 ff 05 3d ee 58 17 3d a0 87 86 3b 52 27 50 3b
       0.03271452 0.036950044 0.004105523 0.0031761718
000230 14 19 d7 bb a6 2c 2d 3e ee fc ec 3b 86 92 19 be
       -0.006564269 0.16911563 0.0072323 -0.149973
000240 1e 64 ed bd 74 32 05 3e e9 a1 9a bd 94 8f 0e be
       -0.115913615 0.13007528 -0.07550413 -0.13921958
000250 e6 c1 52 3e 6e f3 9c bd 3e db 08 bd 5b 2b 61 bd
       0.20581779 -0.07663618 -0.03341221 -0.054972988
000260 fc ce fb bd 48 aa 32 3e d6 e6 32 be 58 c4 a4 3d
       -0.122953385 0.1744777 -0.1747087 0.08045262
000270 a9 4b 82 bd 3d 20 00 3e 03 6f 99 3d 57 46 be be
       -0.06362087 0.12512298 0.07491877 -0.3716304
000280 7a ba df 3d 5b d3 0d bc 35 46 f1 bd ea 90 70 bd
       0.109242395 -0.008656348 -0.11780969 -0.05873195
000290 3d 42 a9 3d 4a 59 ce bd 5b 6d 30 be 6c 0d ec bc
       0.08264587 -0.10075624 -0.17229216 -0.028814994
0002a0 b4 de 13 be 39 e5 32 3d 5e 70 70 3d 42 d0 c7 3d
       -0.14440423 0.043675635 0.05870091 0.09756519
0002b0 f0 80 bd bc c2 24 0b bd 23 66 6d bd 39 08 ea 3d
       -0.023132771 -0.0339706 -0.057958733 0.114273496
0002c0 b0 a7 c7 bd 24 4e 35 be 9b 7c 28 39 19 27 02 3d
       -0.09748781 -0.1770559 0.00016068148 0.031775568
0002d0 eb 92 75 bc 53 2d e7 3b 5b 98 da 3d 0b aa 11 3e
       -0.014988641 0.0070549636 0.10673591 0.14225022
0002e0 40 85 15 3d a1 45 28 3d 34 8c 15 be 36 a6 e4 3d
       0.03650403 0.04108203 -0.14604264 0.11164515
0002f0 fa c9 08 3e d0 40 f1 bd e0 db 43 bd 25 64 55 3d
       0.13358298 -0.1177994 -0.04781711 0.05209746
000300 3a e7 b6 3c 91 ae 44 be 9e 35 82 bd 72 cf 5d be
       0.022327054 -0.19207217 -0.06357883 -0.21661165
000310 ee e2 9d 3d 69 60 e8 bb 1b fd c5 bd f6 87 a3 3c
       0.07709299 -0.007091571 -0.09667417 0.019962292
000320 a7 8f 1a 3e 8f dc 02 bd f7 c7 0d 3e de 81 1d 3e
       0.15093862 -0.031948622 0.13845812 0.15381572
000330 46 be cb 3d 24 38 c0 bd 30 d0 be bc 0b 46 70 be
       0.09948401 -0.09385708 -0.02329263 -0.2346422
000340 72 77 bc 3d 82 43 15 3e ee 51 11 bd 67 3a 79 be
       0.0920247 0.14576533 -0.035478525 -0.24338685
000350 d3 e2 3e be ec 60 e5 bd d3 e1 a4 bd 0f 38 42 3d
       -0.18641214 -0.11200127 -0.08050885 0.047416743
000360 22 70 51 bc 45 67 96 3d b3 12 41 3d 74 d4 37 3e
       -0.012783082 0.07343916 0.047136974 0.17952138
000370 b3 17 55 be 17 a4 80 3a 5c 7d bd bd e3 c9 c8 3d
       -0.20809822 0.0009814528 -0.09252426 0.09804132
000380 2a 28 60 3d 1b f0 c5 3d 01 1f 25 3e da ef 26 be
       0.054725803 0.09664937 0.16125108 -0.16302434
000390 9d db ca bd 01 36 df bc bf 5f 22 3d fe c9 56 3e
       -0.09905169 -0.02724743 0.03964209 0.20975491
0003a0 9c 2c 27 3c 63 59 45 3d eb cd 01 3d 83 15 0d be
       0.010203507 0.04818095 0.03169052 -0.13777737
0003b0 2b 23 ad 3d b0 d6 50 3d 6a 2a 7f be bb 5a 6c 3d
       0.084539734 0.050985992 -0.24918523 0.057703715
0003c0 af 4a 53 be 56 03 a3 bc af c1 a4 bb 46 06 46 3d
       -0.20633958 -0.019899052 -0.0050279717 0.048345827
0003d0 38 69 26 3d 73 43 09 bd 70 92 c4 bd 90 d6 ab bd
       0.04062769 -0.03351159 -0.09598243 -0.08390534
0003e0 30 37 2f 3d 46 bb f4 bc d5 52 b5 bd 8f 4c fd bd
       0.04277724 -0.029874455 -0.088536896 -0.12368118
0003f0 45 c9 1d 3e a3 0e f1 3d da 04 8e bd 39 19 76 3e
       0.1540881 0.1177037 -0.06934519 0.24033059

fc3.bias f4 [10]
000000 0e 25 ca bd a2 0e 8a 3b bf 5a 7d bd 6a 72 9e bd
       -0.09870349 0.00421317 -0.06185412 -0.077366665
000010 95 fc 17 3e 17 54 04 3d 9e 19 3e 3c bd c3 16 3d
       0.14842446 0.032306757 0.011602787 0.036807764
000020 ba 93 cf bd 09 ee f5 bc
       -0.101355985 -0.03002073
