Exercise 1/checkpoint.pth (torch, 439727 bytes, 6 tensors)

fc1.weight f4 [128, 784]
0	0x3bb34e58	0.005471986
1	0xbcd113d3	-0.025522148
2	0x3be20190	0.006897159
3	0xbce4a753	-0.027911818
4	0x3a1eb8c0	0.00060547516
5	0xbc58afe0	-0.013225526
6	0xbc9bc253	-0.01901356
7	0x3b97d3b8	0.004633393
8	0xbcfba35a	-0.03071754
9	0xbc7563fc	-0.014977451
10	0x3d0f2acb	0.03495292
11	0x3ceaa146	0.028641354
12	0x3cfb2bd1	0.030660542
13	0x3ce3c998	0.027806088
14	0x3ccfe712	0.025378738
15	0x3cd73330	0.026269525
16	0xbcff3de5	-0.031157443
17	0x3c85df7a	0.016341913
18	0xbafab200	-0.0019126534
19	0x3a0ef580	0.00054534525
20	0xbcb81268	-0.022469714
21	0xbc97b81e	-0.018520411
22	0x3ca23b40	0.019803643
23	0xbd0cef74	-0.034408048
24	0x3b12e3a0	0.0022413507
25	0xbcd93200	-0.0265131
26	0xbb73b710	-0.0037187971
27	0x3cbce718	0.023059413
28	0xbb282b80	-0.0025660694
29	0x3cef2dba	0.029196609
30	0x3c5472dc	0.012966838
31	0x3d0e97bd	0.034812678
32	0xbcb4621c	-0.022019438
33	0xbc37abfc	-0.011210438
34	0x3d9503d9	0.072761245
35	0x3bd85777	0.0066022235
36	0x3cfc0d63	0.030768102
37	0xbb04745c	-0.0020210957
38	0x3cd66fcf	0.026176361
39	0x3d8cdd0f	0.06878101
40	0x3e210d84	0.15727812
41	0x3d81a388	0.06330019
42	0xbc85d5c9	-0.016337292
43	0x3d04859b	0.03235398
44	0x3c402a7c	0.011728879
45	0x3dad61ea	0.08465941
46	0x3e0a5b43	0.13511376
47	0x3e8640e9	0.26221398
48	0x3e51c234	0.20484239
49	0x3ddad211	0.10684598
50	0x3d370cf6	0.044690095
51	0x3d8b21e4	0.067935735
52	0x3c845fb0	0.016158909
53	0x3cbc33ee	0.02297398
54	0xbbeff8a4	-0.0073233414
55	0xbcaee583	-0.021349674
56	0x3d04d313	0.03242786
57	0xbc802d70	-0.015646666
58	0xbcb383e6	-0.02191348
59	0x3c81931a	0.015817214
60	0x3e087cc1	0.1332884
61	0x3d94b601	0.07261277
62	0x3c6ab7ee	0.014326079
63	0x3d00b1bb	0.031419497
64	0x3da786ec	0.08180031
65	0x3e171607	0.14754497
66	0x3e13eda1	0.14446117
67	0x3e1368bd	0.14395423
68	0x3e13aa8d	0.14420529
69	0xbd7da75d	-0.06192719
70	0xbdd886f9	-0.10572619
71	0xbdb2b4b2	-0.08725871
72	0xbd62d21e	-0.055376165
73	0x3ca1b0db	0.019737652
74	0x3da048b1	0.07826365
75	0x3db5eed5	0.08883444
76	0x3d61b82a	0.055107273
77	0x3d90f02f	0.070770614
78	0x3dac09aa	0.08400281
79	0x3d546355	0.051852543
80	0xbd25c07e	-0.040466778
81	0xbd6c2799	-0.05765495
82	0x3cfc356e	0.030787196
83	0x3d0f083d	0.034919966
84	0xbccfad28	-0.025351122
85	0xbd04c59f	-0.03241503
86	0xbd3e35fd	-0.046438206
87	0x3d9c2a44	0.07625249
88	0x3da5a847	0.08088737
89	0xbd8cd67a	-0.06876846
90	0xbd846e1e	-0.06466316
91	0xbc4a1f80	-0.012336612
92	0x3dd75355	0.10513941
93	0x3da3f5a0	0.080058336
94	0x3dc134e1	0.09433914
95	0x3dc15b27	0.09441214
96	0xbd220b32	-0.039561458
97	0xbdbdf08a	-0.09274395
98	0xbdaa094b	-0.08302554
99	0xbde01667	-0.10941773
100	0xbd89e860	-0.06733775
101	0x3da713c2	0.081580654
102	0x3db87aae	0.09007774
103	0x3cee7cf3	0.029112315
104	0x3ddf2259	0.10895223
105	0x3d0fa37f	0.03506803
106	0x3d95ec06	0.073204085
107	0x3cf7e437	0.030260189
108	0x3c5f0620	0.0136123
109	0x3d10c5f6	0.03534504
110	0x3dc08f6e	0.09402357
111	0xbc800aa7	-0.01563008
112	0xbca7095e	-0.020390209
113	0x3c6d4576	0.014481893
114	0xbbe21118	-0.0068990104
115	0x3c350928	0.011049546
116	0xbe10f22c	-0.14154881
117	0xbdffdace	-0.124929056
118	0xbe0b1ed6	-0.13585982
119	0xbd34e012	-0.044159003
120	0x3ced0d82	0.028937105
121	0x3da5ccdf	0.08095717
122	0x3d9f123a	0.07767148
123	0x3e00f41b	0.12593119
124	0x3d14b5ff	0.036306378
125	0xbd7fd7d4	-0.06246169
126	0xbc54f1a0	-0.012997061
127	0x3c11a87d	0.008890268
128	0x3d873411	0.06601728
129	0x3d961a7b	0.073292695
130	0x3d0c1d91	0.034207884
131	0xbcdb52f9	-0.026772963
132	0xbcb422c8	-0.021989241
133	0xbcdbc807	-0.026828779
134	0x3d253b10	0.04033953
135	0xbd5cedbb	-0.053937655
136	0x3d030b74	0.031993344
137	0x3de1a54f	0.11017858
138	0x3e1fc6b4	0.15603143
139	0x3dc74c77	0.097313814
140	0x3c590a58	0.013247095
141	0xbadfc640	-0.0017072633
142	0xbd1a32e4	-0.03764619
143	0xbca1b9f2	-0.019741986
144	0xbe6dcb2d	-0.23222037
145	0xbe3b8e8b	-0.18316095
146	0xbdedb655	-0.11607043
147	0x3c1600d6	0.009155473
148	0x3d6f6e54	0.058454826
149	0x3d830208	0.06396872
150	0x3da7d042	0.08194019
151	0x3e260b9a	0.16215363
152	0x3db33fdd	0.08752415
153	0x3d33cf42	0.04389883
154	0x3cafcffd	0.021461481
155	0x3d8404ff	0.064462654
156	0x3d1188ac	0.03553073
157	0x3dc76d0d	0.09737597
158	0x3d93c94d	0.072161295
159	0x3c88480b	0.016635915
160	0x3d7ab28c	0.06120543
161	0x3c450e8c	0.012027394
162	0x3d6d735f	0.057971355
163	0xbb00719a	-0.0019598962
164	0xbcd4f8bd	-0.025997514
165	0x3da3763e	0.07981537
166	0x3dea6d20	0.11446595
167	0x3debd2ee	0.11514841
168	0x3a315480	0.00067646056
169	0x3d497240	0.049181223
170	0xbdb960b6	-0.09051649
171	0xbea46d06	-0.32114428
172	0xbe8ea988	-0.27863717
173	0xbe2bcdff	-0.167778
174	0xbdb6b42f	-0.08921086
175	0x3ce46340	0.027879357
176	0x3d445933	0.04793663
177	0x3c791712	0.015203254
178	0x3d9bb4fc	0.076028794
179	0x3d3c45f9	0.04596517
180	0x3d59ad82	0.053143986
181	0x3d0c0a56	0.034189545
182	0x3bf4c9a6	0.0074703274
183	0xbaa45f7e	-0.0012540666
184	0x3cac5906	0.021038543
185	0xbb595b5f	-0.0033166034
186	0xbc5f2a68	-0.01362095
187	0x3ca39dbc	0.019972675
188	0xbd6f4801	-0.058418278
189	0xbcc840fc	-0.02444505
190	0xbc0d82ae	-0.0086371135
191	0xbbd59d8c	-0.006519025
192	0x3e07220d	0.13196583
193	0x3e1d58a6	0.15365848
194	0x3d13a5c8	0.036046773
195	0x3ccfe845	0.02537931
196	0xbca9cbec	-0.02072712
197	0xbd437c42	-0.047725923
198	0xbd9b0eb0	-0.07571161
199	0xbe913b88	-0.2836573
200	0xbe751ba9	-0.23936333
201	0xbe15b291	-0.14618899
202	0xbd465277	-0.04841849
203	0x3d77a0d6	0.06045612
204	0x3db06de6	0.086147115
205	0x3da8ed4b	0.08248385
206	0x3db4972a	0.08817895
207	0x3db2c600	0.08729172
208	0x3d1bfdba	0.03808377
209	0x3c6bc8c7	0.014391131
210	0x3b061cd7	0.0020463967
211	0x3cbd8043	0.023132449
212	0xbcc559cf	-0.024090676
213	0xbcb80d51	-0.022467287
214	0xbd4a8946	-0.04944732
215	0xbd72230a	-0.059115447
216	0xbd4efb8d	-0.050532866
217	0x3d599079	0.053116295
218	0x3daac33b	0.083380185
219	0x3db491ab	0.088168465
220	0x3e38f1f9	0.18061055
221	0x3e331267	0.17487489
222	0xbcddf654	-0.027094997
223	0x3d5f80aa	0.054566063
224	0xbd0b4155	-0.033997852
225	0xbdb3026a	-0.08740695
226	0xbe4ae724	-0.19814736
227	0xbe5c7919	-0.2153057
228	0xbe0b0bbc	-0.13578695
229	0xbcf4cb18	-0.029881999
230	0x3d8a0d2c	0.067407936
231	0x3da347c9	0.07972676
232	0x3dfa562a	0.12223466
233	0x3de32350	0.1109072
234	0x3d6a52fe	0.057208054
235	0x3dafdb0f	0.08586704
236	0x3c82b65c	0.015956096
237	0xbd828f2d	-0.06374965
238	0xbdd4007a	-0.103516534
239	0xbd9930e4	-0.07480028
240	0xbc905812	-0.01762012
241	0xbd11c336	-0.03558656
242	0xbd8d2e1a	-0.06893559
243	0xbc4339be	-0.011915622
244	0x3d1976f4	0.03746696
245	0x3d3ea442	0.046543367
246	0x3d9de8cb	0.07710417
247	0x3e35ad31	0.17741849
248	0x3ea56487	0.3230326
249	0x3e8d4baf	0.27596804
250	0x3dce2b09	0.10066802
251	0x3c001197	0.007816694
252	0x3cdc4b66	0.026891422
253	0xbd7f972a	-0.06240002
254	0xbd524c4c	-0.051342294
255	0xbe24ba52	-0.160867

fc1.bias f4 [128]
0	0x3b9627e8	0.004582394
1	0x3d9fdd8f	0.07805931
2	0x3bf5ffa7	0.007507283
3	0xbb1ed19b	-0.0024233821
4	0x3ddb316a	0.10702784
5	0x3d24a179	0.040193055
6	0xbbc1a083	-0.005909027
7	0x3c25afd3	0.010112721
8	0xbd1dea42	-0.038553484
9	0xbd2065ea	-0.039159693
10	0x3d91951a	0.07108517
11	0x3dd20fe5	0.10256938
12	0xbd252488	-0.040318042
13	0xbd519828	-0.051170498
14	0x3c9bca8b	0.019017478
15	0xbd262eb3	-0.04057188
16	0x3d04cb03	0.03242017
17	0x3e069829	0.13143982
18	0x3c04b5e5	0.008100008
19	0xbd32fcab	-0.043697994
20	0xbca2d60c	-0.019877456
21	0x3e094963	0.13406901
22	0xbd78c814	-0.060737684
23	0x3d0cd7db	0.034385543
24	0xbd5dcd47	-0.054150846
25	0x3d51b834	0.05120106
26	0x3cf460fe	0.029831406
27	0x3c2bf1a1	0.010494621
28	0xbc658e39	-0.014010959
29	0x3e10d8e7	0.14145242
30	0x3d20cdc7	0.039258745
31	0xbc1f7cf1	-0.009734378
32	0x3da6636f	0.08124434
33	0x3dbb60f8	0.09149355
34	0x3d8d1c1c	0.06890127
35	0x3dcb7cee	0.09935938
36	0x3df20705	0.11817745
37	0x3ce512d4	0.02796308
38	0x3cf468cb	0.029835125
39	0x3dd3550f	0.10318958
40	0x3da1f90b	0.07908829
41	0xbda259ca	-0.07927282
42	0xbd27c7ac	-0.040961906
43	0x3a640d62	0.0008699504
44	0x3dddfb80	0.108389854
45	0x3db8a1fe	0.090152726
46	0xbd6eea20	-0.058328748
47	0x3e387560	0.18013525
48	0xbd65e435	-0.05612584
49	0xb969e560	-0.0002230606
50	0x3df44b7e	0.119284615
51	0xbdc46fac	-0.09591612
52	0x3e059f61	0.1304908
53	0x3d90f1c1	0.07077361
54	0xbd3a218e	-0.045442156
55	0xbcd3dbb2	-0.025861595
56	0xbd2fec3f	-0.04294991
57	0x3cbf628a	0.023362417
58	0x3d3f82ae	0.046755485
59	0x3e2572bb	0.16157047
60	0x3d64d288	0.05586484
61	0x3da9085a	0.08253546
62	0xbdba9374	-0.09110156
63	0xbd46ffdb	-0.048583847
64	0xba9c4f1c	-0.0011925432
65	0x3d92d57c	0.07169625
66	0x3d4ed0e3	0.05049218
67	0x3d92b008	0.071624815
68	0x3d0b2b38	0.033976763
69	0x3d2f13a0	0.042743325
70	0x3c27d71e	0.010244159
71	0x3ce15d5d	0.02751034
72	0xbc73e703	-0.01488662
73	0x3cec7a3a	0.028866876
74	0x3cb8cd60	0.022558868
75	0x3c380fa4	0.011234198
76	0xbc95673c	-0.018237703
77	0xbd64ac07	-0.05582812
78	0x3d3d3952	0.046197243
79	0x3d1ea9f2	0.03873629
80	0xbcfecdfa	-0.031104077
81	0xbb8faba9	-0.004384477
82	0x3d96c020	0.07360864
83	0xbcb8539d	-0.022500807
84	0x3d887dbe	0.066646084
85	0xbd405c95	-0.046963293
86	0x3d684ece	0.05671578
87	0x3c168221	0.009186299
88	0x3c96aee0	0.018393934
89	0x3da2664e	0.07929669
90	0x3cab3762	0.020900432
91	0xbd961446	-0.073280856
92	0x3d7b4d88	0.061353236
93	0xbda507aa	-0.080581024
94	0x3d90a452	0.070625916
95	0xbccf632b	-0.025315842
96	0xbd24e41c	-0.040256605
97	0x3d8ef51e	0.06980346
98	0x3cc36884	0.023853548
99	0x3d676479	0.056492303
100	0xbdd333c9	-0.103126116
101	0x3d6109c9	0.054940972
102	0xb641f500	-2.890185e-06
103	0x3d3a7ae8	0.04552737
104	0x3d74745d	0.059681285
105	0x3c463dc1	0.012099684
106	0xbd222e54	-0.039594963
107	0x3deb8734	0.11500397
108	0x3e54bb3f	0.20774554
109	0x3bc73af7	0.006080027
110	0xbc318d33	-0.010836887
111	0xbcd5d36a	-0.026101787
112	0x3dcd9275	0.100377
113	0xbc1efde7	-0.00970409
114	0x3d6abe8e	0.057310633
115	0x3d857bed	0.065177776
116	0x3d337036	0.043808185
117	0x3d8643c6	0.065558955
118	0x3c698c0e	0.014254583
119	0x3c599ef1	0.0132825235
120	0x3d276284	0.040865436
121	0xbb69c591	-0.0035670737
122	0x3c8f58a1	0.017498316
123	0x3da22c9d	0.079186656
124	0x3d924286	0.071415946
125	0xbbe133a6	-0.006872612
126	0x3b1d9d69	0.0024050123
127	0x3d37dab4	0.044886306

fc2.weight f4 [64, 128]
0	0x3e012b51	0.1261418
1	0xbe42756b	-0.18990104
2	0x3d705c60	0.058681846
3	0xbc9030e8	-0.017601445
4	0x3e0417ee	0.12899753
5	0x3dd0143f	0.10160112
6	0x3cc2eb4f	0.023793845
7	0xbc43c770	-0.011949405
8	0x3cc552aa	0.024087269
9	0x3db3b56f	0.0877484
10	0x3d8ef50d	0.069803335
11	0xbe03c7c3	-0.12869172
12	0xbd39c0bf	-0.045349833
13	0x3e159203	0.1460648
14	0xbe0d5771	-0.13802887
15	0x3c8ba359	0.017045664
16	0x3e075f07	0.13219844
17	0xbe420469	-0.18946995
18	0xbd277404	-0.040882125
19	0x3da7bdc7	0.08190494
20	0xbd5bc989	-0.053658996
21	0x3db70fed	0.089385845
22	0x3d5a0cd0	0.053234875
23	0x3e187f8a	0.14892402
24	0xbda9273f	-0.08259439
25	0xbd6d44ea	-0.05792705
26	0xbd97ac30	-0.07405889
27	0x3c37ad0f	0.011210694
28	0x3df4bc13	0.11949935
29	0x3c29afc7	0.01035685
30	0xbd190509	-0.037358318
31	0xbdd5a02a	-0.104309395
32	0x3e109cf2	0.1412237
33	0x3ddff1f2	0.10934819
34	0xbe37c243	-0.17945199
35	0xbd3840c8	-0.044983655
36	0x3cd73249	0.026269095
37	0x3ddba74a	0.10725267
38	0x3d7a01e7	0.06103697
39	0x3c60558b	0.01369227
40	0x3d1fc53d	0.03900646
41	0x3cb8ac94	0.02254323
42	0x3dac3d57	0.08410137
43	0xbcc3c1f1	-0.02389619
44	0x3e425364	0.18977123
45	0xbe311485	-0.17292984
46	0x3dc6f002	0.097137466
47	0xbe0c6352	-0.13709763
48	0x3d337da1	0.04382098
49	0x3cff1109	0.031136053
50	0xbda4f1f5	-0.08053962
51	0xbe40fad8	-0.1884569
52	0x3e0bb2c5	0.13642414
53	0xbc917501	-0.017755987
54	0xbca6995e	-0.020336803
55	0xbe0b309c	-0.13592762
56	0xbe380fd0	-0.17974782
57	0xbd3ab537	-0.045582976
58	0xbe33e949	-0.1756946
59	0x3da92120	0.08258271
60	0x3caaf4c4	0.020868666
61	0x399044c0	0.00027517043
62	0x3c0fc4eb	0.008774976
63	0xba289c37	-0.0006431969
64	0x3da749df	0.08168387
65	0xbd0005b6	-0.031255446
66	0xbce7d032	-0.028297517
67	0x3d39d72b	0.045371216
68	0xbddbb2d0	-0.10727465
69	0xbdb9ecc6	-0.09078364
70	0x3c8401fb	0.016114226
71	0xbdc086cd	-0.09400711
72	0xbcd48a0a	-0.025944728
73	0xbddc4e77	-0.107571535
74	0x3d8c7bfc	0.06859586
75	0x3cfb6431	0.030687423
76	0xbde49bb1	-0.11162508
77	0x3d008ed6	0.03138622
78	0xbd4330a3	-0.047653805
79	0x3d34c065	0.044128794
80	0x3cd1d0e0	0.025612295
81	0xbd863881	-0.06553746
82	0xbd3600d6	-0.04443439
83	0xbe2eaed8	-0.17058885
84	0x3db7b417	0.08969896
85	0xbe1601a6	-0.14649066
86	0x3dc4929e	0.095982775
87	0x3d2718f8	0.040795296
88	0xbd08280a	-0.03324131
89	0xbc9040a5	-0.01760895
90	0x3e75a00f	0.23986839
91	0xbcfe8ef2	-0.031074021
92	0x3ea38351	0.31936124
93	0xbd810a64	-0.0630081
94	0x3d72856a	0.059209265
95	0xbde9206e	-0.113831386
96	0x3d64aaef	0.055827077
97	0xbe0a144b	-0.13484304
98	0xbdea1c59	-0.11431188
99	0x3dffb43e	0.1248555
100	0xbda7665d	-0.08173821
101	0xbe0c9d63	-0.13731913
102	0xbe13c1ed	-0.14429446
103	0x3c88a6bc	0.016681068
104	0xbced8719	-0.028995084
105	0xbdd39016	-0.103302166
106	0xbdc53c63	-0.096306585
107	0xbe123dce	-0.14281389
108	0x3dd103f1	0.1020583
109	0xbbd9944a	-0.006639992
110	0xbdb696d2	-0.089154854
111	0xbdd8f511	-0.10593618
112	0xbd5ff29e	-0.054674737
113	0x3d50658e	0.0508781
114	0x3d1df3aa	0.038562454
115	0xbc8ab8e7	-0.016933871
116	0x3e612bbc	0.2198934
117	0xbb061e7c	-0.0020464947
118	0xbc68a3d8	-0.01419922
119	0x3e798580	0.24367332
120	0xbcafa537	-0.021441085
121	0x3cada2b7	0.021195753
122	0x3db1fc4a	0.086906984
123	0xbc91eaa6	-0.017812084
124	0x3dd8a0a3	0.10577514
125	0x3dec4e36	0.11538355
126	0xbc2b56f8	-0.010457747
127	0x3e157d30	0.14598536
128	0x3d17fe0f	0.037107524
129	0x3cec975d	0.02888077
130	0x3d33e717	0.043921556
131	0x3d34258d	0.043981124
132	0x3ce83d1e	0.028349455
133	0xbcf355c1	-0.029703977
134	0xbdd4f438	-0.103981435
135	0x3cb934dd	0.022608215
136	0x3d84956c	0.064738125
137	0xbd878f97	-0.066191845
138	0x3da9e980	0.0829649
139	0x3c2f337d	0.010693428
140	0x3e064739	0.13113107
141	0xbd93a703	-0.07209589
142	0x3bab6d1d	0.005231513
143	0x3d32c7f6	0.04364773
144	0x3e05da00	0.13071442
145	0xbb381c58	-0.0028093066
146	0xbdd8f9cd	-0.10594521
147	0x3d20fe4a	0.03930501
148	0x3e066ef0	0.13128257
149	0xbd8b8c5c	-0.06813881
150	0xbd0bc2e0	-0.034121394
151	0xbe18bb27	-0.14915143
152	0x3e96efda	0.29479867
153	0xbc885235	-0.016640762
154	0xbb535f09	-0.003225269
155	0xbdd53888	-0.10411173
156	0x3de20f25	0.11038045
157	0xbe166cb4	-0.14689904
158	0x3e3b34bb	0.18281834
159	0xbd9d35b4	-0.07676259
160	0xbce88f95	-0.028388778
161	0x3d93f96a	0.07225306
162	0xbd35a17a	-0.04434345
163	0x3e9793e8	0.2960503
164	0x3e0b99c7	0.1363288
165	0xbe620735	-0.22073062
166	0xbdb36d47	-0.087610774
167	0x3d8d888e	0.06910811
168	0xbe2d959c	-0.16951603
169	0xbd1d6da3	-0.038434636
170	0x3d87b002	0.06625368
171	0x3e06c398	0.1316055
172	0x3e59294e	0.21207163
173	0x3d5d36fc	0.054007515
174	0xbe3b0c6c	-0.18266457
175	0xbdbd96d0	-0.09257281
176	0xb92c487c	-0.00016430201
177	0xbdb413a5	-0.087928094
178	0xbb4438d0	-0.002994109
179	0x3db07a93	0.08617129
180	0x3e3157aa	0.17318597
181	0x3e1ce507	0.15321742
182	0xbce5ef63	-0.02806825
183	0xbd7758d9	-0.060387466
184	0xbda2f76b	-0.079573475
185	0xbe2bea33	-0.16788559
186	0xbc9eadbf	-0.019369958
187	0x3ddd5036	0.10806315
188	0xba62f3f2	-0.00086575665
189	0x3e555606	0.20833597
190	0xbdac0248	-0.083988726
191	0x3d82af13	0.06381049
192	0x3b04a6a7	0.0020240934
193	0x3d9eb273	0.0774888
194	0x3d842e22	0.06454112
195	0x3de473b3	0.111548804
196	0x3e007b3e	0.12547013
197	0xbe2eaa4f	-0.17057155
198	0xbdad0606	-0.084484145
199	0xbdb90410	-0.09033978
200	0xbcf022df	-0.029313503
201	0xbc3a39a9	-0.011366286
202	0xbd96eb96	-0.07369153
203	0x3b83a0aa	0.0040169554
204	0xbda53d34	-0.08068314
205	0xbd94ef1f	-0.07272171
206	0x3e2a21c5	0.16614445
207	0x3d8a835c	0.06763336
208	0xbd9d4e96	-0.07681005
209	0xbce6dc97	-0.028181357
210	0xbd7f9e95	-0.062407095
211	0x3df744f0	0.12073696
212	0x3d55caf6	0.05219551
213	0x3da2005a	0.07910223
214	0x3d583bb2	0.052791305
215	0x3df3ecd6	0.11910407
216	0xbd8db1be	-0.06918667
217	0x3cd3805d	0.025818044
218	0xbea516f1	-0.32244065
219	0xb7b42e5e	-2.1479264e-05
220	0xbe567c2f	-0.2094581
221	0xbb5c24e8	-0.0033591334
222	0x3da9cc3a	0.08290906
223	0xbc738ff2	-0.014865862
224	0x3cb5efea	0.022209127
225	0xbe0051e1	-0.12531234
226	0xbd542b23	-0.05179895
227	0x3d0ae15d	0.03390633
228	0x3d84bf64	0.06481817
229	0xbc86b699	-0.016444491
230	0xbe54f413	-0.20796232
231	0x3e40f686	0.18844041
232	0x3d2d9f0f	0.04238802
233	0x3e3ee6fe	0.18642804
234	0x3d028440	0.031864405
235	0xbe67c148	-0.22632325
236	0x3e0aa328	0.13538802
237	0x3e36c312	0.17847851
238	0x3e15bf09	0.14623655
239	0xbd276599	-0.040868375
240	0xbc08495e	-0.008318273
241	0x3d5543f9	0.052066777
242	0xbd0ae2d5	-0.03390773
243	0x3da215e5	0.07914332
244	0x3d0ff9d5	0.035150368
245	0x3dcaed78	0.09908575
246	0xbd8669dd	-0.065631606
247	0xbda327ef	-0.07966601
248	0x3e115b1e	0.14194915
249	0x3dc082c7	0.09399944
250	0x3d4ac8c7	0.049507882
251	0xbe048383	-0.12940793
252	0x3d54f91a	0.051995374
253	0x3d56f88d	0.05248313
254	0xbc12d1ed	-0.008961183
255	0xbe2a0fc3	-0.16607575

fc2.bias f4 [64]
0	0x3c3e0c06	0.011599546
1	0x3e2d0243	0.16895394
2	0xbcee3d6a	-0.029082019
3	0x3d617158	0.055039734
4	0x3d8f49e5	0.06996516
5	0x3cf59782	0.029979471
6	0x3e2461d8	0.1605295
7	0x3dfed806	0.12443547
8	0x3d1fd4e4	0.039021388
9	0x3e17f0f4	0.1483801
10	0x3d930e92	0.071805134
11	0x3d9e66a5	0.07734422
12	0x3d4de67e	0.050268643
13	0xbdf9c0ae	-0.12194954
14	0x3d87c66e	0.06629644
15	0xbd9dd929	-0.07707436
16	0x3e1d1051	0.15338255
17	0x3d220652	0.03955681
18	0x3d323cdc	0.04351507
19	0xbda6612a	-0.08124001
20	0xbd252be0	-0.040325046
21	0x3d6097e8	0.05483237
22	0x3c42c756	0.011888346
23	0x3bc66bfe	0.006055354
24	0xbe0b9cf8	-0.13634098
25	0x3d0f686e	0.0350117
26	0xbc604dfe	-0.01369047
27	0x3d24d654	0.04024346
28	0xbd3b3d2f	-0.045712646
29	0x3cb07e7b	0.021544686
30	0xbdd056c1	-0.10172797
31	0xbd636c28	-0.055523068
32	0xbd141f2f	-0.03616255
33	0x3d3efcfd	0.046627987
34	0x3b800ec9	0.0039080125
35	0x3dc54ece	0.096341714
36	0x3dc3b99f	0.09556889
37	0xbd2624c5	-0.04056241
38	0x3c8f237f	0.01747298
39	0x3d5ec147	0.054383542
40	0xbd9dab39	-0.07698674
41	0x3deffc72	0.11718072
42	0xbc8e8b48	-0.017400399
43	0x3d353dd8	0.044248432
44	0x3d0f60cf	0.035004433
45	0x3b8dbdf4	0.0043256227
46	0x3d8b2bb9	0.06795449
47	0x3dd9969b	0.10624429
48	0xbba15721	-0.0049237167
49	0x3d763300	0.06010723
50	0x3d42845a	0.0474895
51	0x3e04751d	0.129353
52	0xbd173a5c	-0.03692089
53	0xbcd62f89	-0.026145713
54	0x3d8bd45a	0.06827612
55	0x3cfca0db	0.03083842
56	0x3da92121	0.08258272
57	0x3d320547	0.043462064
58	0x3d2838ed	0.041069914
59	0x3db18377	0.08667653
60	0xbcfbf779	-0.030757653
61	0x3d54a14a	0.05191163
62	0xbde4df13	-0.111753605
63	0x3e221d32	0.1583145

fc3.weight f4 [10, 64]
0	0xbe93908b	-0.28821215
1	0xbdcf39ea	-0.10118468
2	0x3e3fc603	0.18727879
3	0xbdea0296	-0.114262745
4	0x3e087d6c	0.13329095
5	0xbebb2437	-0.36551067
6	0xbe745128	-0.23859084
7	0xbe8fb308	-0.28066278
8	0x3d21c032	0.039489932
9	0xbe31b193	-0.17352895
10	0xbdac47e0	-0.084121466
11	0x3e2e32d0	0.17011571
12	0x3df4cdc2	0.11953308
13	0xbe1ccf78	-0.15313518
14	0xbe35c063	-0.17749171
15	0xbe0cf356	-0.137647
16	0x3e288880	0.1645832
17	0xbe71026c	-0.2353608
18	0xbd8c0e0b	-0.06838616
19	0xbcffeb84	-0.031240232
20	0x3df7823f	0.12085389
21	0x3d8f2ecd	0.069913484
22	0xbdf97ca0	-0.121819735
23	0xbd4f0290	-0.050539553
24	0xbd1dd58a	-0.038533725
25	0xbe10550c	-0.14094943
26	0xbe27484f	-0.16336177
27	0xbda4e51f	-0.08051514
28	0xbe356904	-0.17715842
29	0xbe17774a	-0.14791599
30	0xbcc05318	-0.023477122
31	0x3c81d55d	0.01584881
32	0xbe6db4c8	-0.23213494
33	0x3db72b62	0.089438215
34	0x3e0df860	0.13864279
35	0x3dcbd14d	0.0995203
36	0x3dd1a42f	0.10236394
37	0x3e0250ae	0.1272609
38	0xbc93e78e	-0.01805475
39	0x3d8fd074	0.07022181
40	0x3d0a8ab7	0.033823695
41	0x3dc5f44a	0.09665735
42	0xbe0875a5	-0.13326128
43	0xbdf111e5	-0.11770991
44	0xbd9da228	-0.076969445
45	0x3dd9fafe	0.10643576
46	0xbe8dc6fb	-0.27690873
47	0xbb8357ab	-0.0040082536
48	0x3d21010f	0.03930765
49	0xbe463eca	-0.1935989
50	0xbcc39b60	-0.0238778
51	0xbe5fd90b	-0.21860139
52	0x3e8328eb	0.25617155
53	0xbe8901b3	-0.2675911
54	0x3b257eca	0.0025252574
55	0xbe19f792	-0.15035847
56	0x3e3d98d8	0.18515337
57	0x3b65b202	0.0035048728
58	0xbdc05af7	-0.0939235
59	0x3d565fc6	0.05233743
60	0xbc675c1d	-0.014121083
61	0xbc2f52ce	-0.0107008945
62	0x3d4c0916	0.049813353
63	0xbe7183a4	-0.23585373
64	0xbdab6a8a	-0.0836993
65	0xbce64dfc	-0.028113358
66	0x3cde11b5	0.027108053
67	0x3dd8da77	0.10588544
68	0x3e07f4de	0.13277003
69	0xbcef9667	-0.029246522
70	0x3d06b3ca	0.032886304
71	0x3e487f43	0.19579796
72	0x3d4976c2	0.049185522
73	0x3e2e6ca1	0.17033626
74	0xbdf8559a	-0.12125702
75	0xbe2ff5de	-0.17183635
76	0xbe4a8537	-0.1977738
77	0xbcf60d4a	-0.030035634
78	0xbe209e68	-0.15685427
79	0xbda62f24	-0.0811446
80	0xbde10a14	-0.109882504
81	0x3e30941e	0.17244002
82	0xbc7ba8d0	-0.015360072
83	0xbe167c5b	-0.14695875
84	0xbe166d93	-0.14690237
85	0x3e3623a2	0.1778703
86	0xbe9a912e	-0.30188888
87	0xbd629834	-0.055320933
88	0xbe267002	-0.16253665
89	0x3e586748	0.21133149
90	0xbdfbb924	-0.12291172
91	0xbd919016	-0.0710756
92	0xbe34193a	-0.17587748
93	0x3dd8ce3b	0.1058621
94	0x3d7d1ff8	0.061798066
95	0xbe01935a	-0.12653866
96	0xbdeca14f	-0.11554205
97	0x3ccfa86e	0.025348868
98	0xbc600e73	-0.01367532
99	0xbe8b0c17	-0.2715766
100	0x3d47c090	0.048767626
101	0xba8bdf3a	-0.0010671385
102	0xbe6e590d	-0.23276158
103	0xbe6483f4	-0.22315961
104	0xbb6444f2	-0.0034831134
105	0x3e2b910c	0.1675455
106	0x3e4f692a	0.2025496
107	0x3e255001	0.161438
108	0x3d893b52	0.067007676
109	0xbe33a88f	-0.17544769
110	0x3d1930a7	0.037399914
111	0xbcccc8f6	-0.02499817
112	0xbe4e7b9b	-0.20164339
113	0xbd006d41	-0.031354193
114	0x3e165b57	0.14683281
115	0xbe1fc9ae	-0.15604278
116	0xbe8f2b8f	-0.2796292
117	0x3e87c37b	0.26516327
118	0x3c6766ec	0.01412366
119	0x3d17847c	0.03699158
120	0xbe5e5cff	-0.21715163
121	0xbe8fbed4	-0.28075278
122	0xbe22448c	-0.15846461
123	0xbe2c1b3c	-0.16807264
124	0x3d3c4743	0.045966398
125	0x3d99586c	0.07487568
126	0xbde12758	-0.10993832
127	0x3db01321	0.085973985
128	0x3d210931	0.039315406
129	0x3e2dc8a0	0.16971064
130	0x3db47496	0.088112995
131	0x3e31f4d6	0.17378554
132	0xbd5ee12f	-0.05441397
133	0xbdb2bf7a	-0.087279275
134	0xbe95f076	-0.2928502
135	0x3ca1c1d6	0.019745748
136	0x3e00f05a	0.12591687
137	0x3e0d81a5	0.13818987
138	0xbd23afaa	-0.03996245
139	0x3e1dc1f9	0.15406026
140	0xbc58b3fa	-0.0132265035
141	0x3de0b371	0.10971726
142	0x3e18ed25	0.14934213
143	0xbd98b664	-0.07456663
144	0xbe3d0e23	-0.18462424
145	0xbe1febb9	-0.15617265
146	0x3d6b0f81	0.057387833
147	0xbcae32ac	-0.021264397
148	0x3d916c92	0.07100786
149	0x3da85e00	0.08221054
150	0xbe0d647a	-0.1380786
151	0x3dde8d19	0.10866756
152	0x3d3b5978	0.04573962
153	0x3e5016d4	0.20321208
154	0xbe4fe2b7	-0.20301329
155	0x3db66f18	0.08907908
156	0xbd2f7063	-0.04283179
157	0x3b27aacf	0.0025583988
158	0xbd13825a	-0.036012985
159	0xbd82c2a0	-0.06384778
160	0x3e1d05ac	0.15334195
161	0xbe11c992	-0.14237049
162	0x3e09e247	0.13465224
163	0x3cdee140	0.027207017
164	0x3c9e94c9	0.019358056
165	0x3b56a62c	0.0032752855
166	0xbe5dabe7	-0.21647607
167	0x3d8937f7	0.067001276
168	0xbdb3a07d	-0.08770845
169	0xbe6a6b95	-0.22892602
170	0xbbd8b600	-0.006613493
171	0xbe3212e9	-0.17390026
172	0x3e1056a6	0.14095554
173	0x3e435a67	0.19077455
174	0x3d8d3ca8	0.06896335
175	0x3dd08249	0.101811
176	0x3e645780	0.22299004
177	0xbe063456	-0.13105902
178	0xbe26739c	-0.16255039
179	0xbd9d8863	-0.07692029
180	0xbe45fa2f	-0.19333719
181	0xbda49ec3	-0.08038094
182	0x3e1b05a5	0.15138872
183	0x3da578fb	0.08079716
184	0xbe3c95cc	-0.18416518
185	0x3cb42e12	0.021994624
186	0x3e28be27	0.16478787
187	0xbe0004bc	-0.12501806
188	0x3d97844d	0.07398281
189	0xbe988e40	-0.29796028
190	0x3d880668	0.06641847
191	0x3cc5be1d	0.024138505
192	0x3e243cc7	0.1603881
193	0xbe31a772	-0.17349032
194	0xbde7a22c	-0.11310229
195	0xbc9c123b	-0.019051662
196	0x3dda3661	0.10654903
197	0x3dd19da4	0.10235146
198	0xbe37bcb6	-0.17943081
199	0xbe001645	-0.12508495
200	0x3e2f03bb	0.17091267
201	0xbd82bf96	-0.06384198
202	0x3ce98f0b	0.028510591
203	0x3d56f9e0	0.052484393
204	0xbe58e6f8	-0.21181858
205	0xbc0408e9	-0.008058765
206	0xbda8d5e0	-0.082439184
207	0xbe83945a	-0.2569912
208	0xbe83ca44	-0.25740254
209	0xbe383118	-0.17987478
210	0xbd967370	-0.07346237
211	0x3db7a560	0.0896709
212	0x3dee6cfe	0.11641882
213	0xbda020d7	-0.07818764
214	0x3e17717c	0.14789385
215	0x3d822f0e	0.06356631
216	0x3bbb915f	0.0057241167
217	0xbe116d91	-0.14201953
218	0x3e3156e6	0.17318305
219	0xbd5035bb	-0.05083249
220	0xbe0e00c7	-0.13867484
221	0x3d73beb3	0.059508037
222	0x3d092492	0.03348214
223	0x3d8724f1	0.06598843
224	0x3e064fc1	0.13116361
225	0x3e029c6e	0.12754986
226	0xbbdf4c86	-0.006814542
227	0x3dfe70bb	0.124238454
228	0xbcda7076	-0.026664954
229	0xbd1e6861	-0.038673762
230	0xbd35b8ee	-0.044365816
231	0x3cd4b515	0.025965253
232	0x3d968685	0.07349876
233	0xbd8b6de1	-0.06808067
234	0x3d9c5147	0.0763269
235	0x3d915004	0.0709534
236	0xbdf4dc12	-0.119560376
237	0x3d29d839	0.04146597
238	0x3e2bbea7	0.16771947
239	0xbd8dad99	-0.06917877
240	0x3d7d0f69	0.061782274
241	0xbd6fe8ab	-0.0585715
242	0x3e12922d	0.14313574
243	0xbe5bfd0f	-0.21483253
244	0xbc8007fd	-0.01562881
245	0x3e487719	0.19576682
246	0xbe35cdad	-0.1775424
247	0x3caf3d4d	0.021391535
248	0xbe1a29be	-0.15054986
249	0x3e25a009	0.1617433
250	0x3e1f82e0	0.15577269
251	0x3d9539a6	0.07286386
252	0xbd923cab	-0.07140478
253	0x3d9d9d54	0.076960236
254	0x3cc0bbde	0.023527082
255	0x3d2b0cb5	0.041760165

fc3.bias f4 [10]
0	0x3c9880f1	0.018616172
1	0xbd4c6852	-0.049904175
2	0x3bec1616	0.0072047813
3	0xbd6c8d78	-0.057752103
4	0x3dcd8ac7	0.10036235
5	0x3c71df88	0.014762767
6	0xbdfdb88d	-0.12388716
7	0xbc23ce05	-0.009997849
8	0x3d876474	0.06610957
9	0x3e06946e	0.13142559
