Exercise 1/checkpoint.pth (torch, 439727 bytes, 6 tensors)

fc1.weight f4 [128, 784]
00000000: dc40 91bc 4ca5 85bc 3fcd 02bd 585a 023c
00000010: f37f 043d c031 d5bb 72d8 8b3c f756 04bd
00000020: f86f 673c 384e 83bb 4617 51bc a7dc 96bc
00000030: 0d26 293e 7fc8 313e 5096 8ebc 0262 e03c
00000040: 281c 1f3c 205b f83b 289d bbbc 6847 ee3b
00000050: d786 8fbc 8042 a3bb ca7c c13c a66a 09bd
00000060: 9445 413c 24e1 573c 3d4d 083d d0f9 a6bc
00000070: eeee 883c e0eb 6f3c 3631 a63c 3396 e0bc
00000080: fce3 af3b 8f34 b03d 0766 1e3e ae18 523e
00000090: d9fe 513e e909 5b3e cc28 093e f6e1 a63e
000000a0: cc8f 8b3e 8b6c 043e fabb 43be 42f0 99bd
000000b0: 01b9 8dbd 8537 523b 98ea a23e 424f cd3e
000000c0: e725 c03e ffdd 913e ca7f 613e 8da8 283e
000000d0: 0662 df3c 4164 f6bc 705a 5c3c c89d 2b3c
000000e0: 306e 243c ea16 f93c 9266 d53b 285e 1e3d
000000f0: e13e 8d3e 02c8 703e 0b48 553e c323 413e
00000100: 5278 ad3d 35e0 293b 1695 543e b1ce 153f
00000110: 6fa9 a03e 2359 6f3e d5f4 d73d afe5 593e
00000120: d27e d53d 8d41 8f3d f66d 8a3e 1688 3a3f
00000130: 0d35 143f 7781 cd3e da4e e33e 3c0a 053e
00000140: c616 54be 9f10 45be d0f7 053b e333 84bc
00000150: 08b8 c3bc c2a0 f83c 469c 8ebe f20c 6ebd
00000160: 5761 953e faa8 9abd 4a5f 523e 4b30 6e3e
00000170: 27c6 413e b86e f03d e428 8ebe c6e3 23bc
00000180: 18af 19bc 5683 a13e fd7e c53c c7b7 82bc
00000190: a6dc 98bd e4e6 80bd 9bd3 9c3e 15fe b23e
000001a0: bcb1 c83e a20d d03e 055e d73e 40e3 353f
000001b0: 4066 6c3e 25b9 fcbd 6244 40bd 98e1 d0bc
000001c0: 609d 283c daf4 aebc 23eb 45be 5d19 21be
000001d0: 8008 f03c 1546 dbbb 9ea6 2b3e 29c2 323e
000001e0: 7841 9a3b eba0 8ebe dc25 8ebe e2b9 8dbe
000001f0: 5247 e2bd 9a6d 963d cc38 d5bc 05bd 9dbd
00000200: 7bef a4be 8ed6 003c 299d e13d 3c55 253f
00000210: 7323 0b3f 9cd4 c63e 28e5 583d 088d 713e
00000220: 2ebe 953e bc0c 8cbd 7341 2b3e c611 1c3e
00000230: 8e00 06bc 3064 4b3b 929c eabd 9121 7a3d
00000240: 1525 353e 81a2 dc3e f2db a93e 0b7e 8f3e
00000250: 6265 503e 03c9 eabd 0ae1 6bbe c028 3cbe
00000260: 4d90 9b3e 9b2c 923e 3d32 393d 9e71 ac3a
00000270: 288a f2bd 0114 013e 5cca 7c3d b181 d93d
00000280: 91e8 073e c53e 943c b801 02bf e7d0 c9be
00000290: 94a6 1abc ad5c 393e 6333 8c3e 4b0b 2b3e
000002a0: d85e abbc 6727 bcbd d483 12bd b183 c5bc
000002b0: d61b 8d3e 517b a13e 5502 003e 5e54 393d
000002c0: 995b b1bc f9ef 2fbe c0dd 01be 3bb2 533e
000002d0: d103 8c3e 3f37 9a3e 1239 2d3e e75e a53e
000002e0: 6e1f 8c3e 4350 e93e a677 983e df49 69bc
000002f0: 10ab b0b8 9574 1abc 74ee 53be 3b32 afbe
00000300: 78f5 08be 980e 483e b11a 353e c1a8 1b3e
00000310: 4abe 063d eeb0 7dbd a495 2939 60d1 9bbd
00000320: 3180 6bbe 95bb 82be bd74 92bd 4aef 59bc
00000330: 75a1 8dbe 78db a3bc 59f2 863e c6b6 b53e
00000340: 4391 b63e 411c 733d 301a e1bc d70c 0a3e
00000350: 7f35 733e 59b7 a63e 2b92 f93e cc10 34be
00000360: 546a 4cbe 2fed b03d 93ce 14be 0202 84be
00000370: cd68 b1be dad1 a3be f42d a13e b42c 353e
00000380: 809b 09be 44ee 3f3d be2f f6bd c34e 1dbe
00000390: d9ad bfbe 5601 34be 8531 283e c87d dfbc
000003a0: efce 17be dc17 8a3d 14e1 413e fb49 a23e
000003b0: 3aa4 833e 442d 1c3e fbb7 53be ff73 43be
000003c0: f241 8ebe 4ec4 76bd c2b7 0d3e ea03 5ebd
000003d0: 2736 0abe b896 143e 2be1 8ebd ea5e d7be
000003e0: d3d7 2f3d 1dd7 303c b056 7c3e 18a5 893e
000003f0: 8536 7c3d 7b2a c03d 2dde 5dbe da3f 313e
-0.017731123 -0.016314171 -0.03193402 0.00795611 0.032348584 -0.006506175 0.017070983 -0.0323095
0.0141258165 -0.004007127 -0.0127618965 -0.018415762 0.16518421 0.1736164 -0.017405659 0.027390484
0.009711303 0.0075792223 -0.022902086 0.007271696 -0.017520351 -0.0049822927 0.023619074 -0.033548974
0.011796374 0.013176236 0.033276785 -0.020382792 0.016715493 0.014643639 0.020287137 -0.02741537
0.005367754 0.08603775 0.15468608 0.20517227 0.20507373 0.21390499 0.13394469 0.3259427
0.27258146 0.12932031 -0.19114676 -0.07516529 -0.06920052 0.003207655 0.31819606 0.4009953
0.37528917 0.28489682 0.22021404 0.16470547 0.02726842 -0.030077102 0.013449296 0.01047463
0.010036036 0.030406434 0.0065124715 0.038664013 0.27587035 0.23513797 0.20828263 0.18861298
0.08470215 0.0025920991 0.20759997 0.5851851 0.31379268 0.23373847 0.10544745 0.21279024
0.1042458 0.06994925 0.2703702 0.728639 0.5789345 0.40137836 0.44396096 0.12992185
-0.20711812 -0.19244622 0.0020441897 -0.016138023 -0.023891464 0.030350093 -0.27853602 -0.058117814
0.29175827 -0.07551761 0.20544162 0.2326061 0.18923245 0.11739868 -0.27765572 -0.010003036
-0.0093801245 0.31545514 0.024108404 -0.015956772 -0.0746396 -0.06294039 0.30630192 0.34959474
0.391981 0.406354 0.4206392 0.7104988 0.2308588 -0.12340001 -0.046940215 -0.025498196
0.010291427 -0.021356989 -0.19327979 -0.15732332 0.029300928 -0.006691704 0.16762778 0.17456879
0.0047075115 -0.27857146 -0.2776326 -0.2768088 -0.110487595 0.073451236 -0.02602806 -0.07702068
-0.3221396 0.007863654 0.11016304 0.6458318 0.54350966 0.38834083 0.052952915 0.23588955
0.29246658 -0.068383664 0.16724186 0.15241155 -0.008178843 0.0031035058 -0.11455645 0.061067168
0.17689927 0.4309273 0.33175617 0.2802585 0.20351174 -0.11464121 -0.23035064 -0.1837492
0.3038353 0.28549656 0.045213927 0.0013156419 -0.118427575 0.12605287 0.061716422 0.1062044
0.13272311 0.018096337 -0.5078387 -0.39417192 -0.009439129 0.18101759 0.27382955 0.16703527
-0.020919248 -0.09187203 -0.035770252 -0.024110647 0.275603 0.31539395 0.1250089 0.045246474
-0.021650122 -0.17181386 -0.12682247 0.20673458 0.27346662 0.30120274 0.16916302 0.32298967
0.2736773 0.45569047 0.29778785 -0.014238804 -8.424197e-05 -0.009427209 -0.20696431 -0.3421801
-0.13374889 0.19536817 0.17685963 0.15201093 0.032896318 -0.06193631 0.00016172841 -0.076082945
-0.2299812 -0.2553374 -0.07151172 -0.01330168 -0.27662244 -0.020002112 0.26356772 0.35491008
0.356577 0.059353117 -0.027478307 0.1348146 0.23750876 0.32561758 0.4874433 -0.17584532
-0.19962436 0.08638989 -0.14531927 -0.25782782 -0.3465027 -0.31996042 0.31480372 0.17692834
-0.13438225 0.046858087 -0.12020825 -0.15362076 -0.37437323 -0.17578635 0.1642514 -0.027281657
-0.14825033 0.06742832 0.18933517 0.31697068 0.25711232 0.15251642 -0.20675652 -0.19087218
-0.27784687 -0.060245804 0.1383963 -0.05420295 -0.1349722 0.1451062 -0.06976541 -0.420646
0.042930435 0.0107934745 0.24642444 0.2688377 0.06157543 0.093831025 -0.21666785 0.17309514

fc1.bias f4 [128]
00000000: f1e1 233e 85e6 7a3d 55bf 8ebe 3301 17be
00000010: 3a29 cdbd 865d 0a3e 7b30 d6bd 9acd 443d
00000020: e3ed 513e 2677 2abe d8de 11bd 973c b4be
00000030: 20e7 9c3d 5972 dabd cf19 c83e 68c0 55be
00000040: c9db 09bd 2ce8 86be e6be 713e f20f 2e3e
00000050: 6661 bb3d 390d 123e 5fd4 473e c720 01bc
00000060: 7ddb 04be 31b5 1ebe d232 bebd 11c8 0d3a
00000070: 708d 31be a3c7 5f3e ce31 553e 57dd 5cbe
00000080: 1d44 d1bd 8561 4dbe 5cd2 253c 7b07 163e
00000090: cf62 7fbe ea77 26be a06d bfbd 97b6 873d
000000a0: 9bdb a63e b2bc 573e 084c a33d f33a 983e
000000b0: 1436 0f3e 1e5f b83e 3933 3e3e 8654 7c3d
000000c0: f3b5 413b d661 26be 5ee9 ad3d e41e 43be
000000d0: 4d33 2dbe 443b 23bd c5c6 313e a353 f7bc
000000e0: acd2 873d 192d c23c 4a1a 243e 6987 9ebd
000000f0: 124a 09be e921 08be 7b56 0d3d 895c 7bbe
00000100: c314 483e 23c5 c3bc c5bf bf3a 6791 3cbd
00000110: c073 12be b359 3d3e 5b3a 9abe 69ed 4fbe
00000120: b93b 5cbe 9131 36be 9150 ebbc 5b85 25be
00000130: 5819 bfbd c88c c83c 6c52 2ebe f26e ff3e
00000140: 09ba 3cbe c0cf 03bf cab3 15bd d334 80be
00000150: 1575 41be a552 bebd 9901 063d 7cbe 623e
00000160: 6dd6 febd 6f42 75be 9121 583e d219 943e
00000170: 1a79 33be 9183 b5bd d9c7 aa3c ba46 9ebe
00000180: 0da0 2a3d 12ca 3e3d f708 1dbe 2c77 bcbe
00000190: 36a2 25bd 4daa 8fbd 9a1e 48bd f0e2 f1bd
000001a0: 68bf ebbd f2a4 f3bd c4da e9bd dfcc e13d
000001b0: d842 293e dbf6 6dbc 0b00 d7be 586b 953c
000001c0: aaa6 e03d 0839 183c 4639 a03c 308a 44bd
000001d0: bcde 0fbe 48bb b83e 254f 13be 95f5 3cbe
000001e0: 79fa 80bd f5a4 d3be 3ede 9e3e 0c65 cebb
000001f0: f57d 863e a325 1abe c4d8 8e3e 5ced 1abd
0.16004159 0.061254997 -0.2788035 -0.14746551 -0.10017629 0.13512239 -0.10458466 0.04804764
0.20500903 -0.16647014 -0.03561291 -0.35202476 0.07661271 -0.10666341 0.3908219 -0.20874178
-0.03365687 -0.26349008 0.23607978 0.1699827 0.09149437 0.14262857 0.19514607 -0.00788135
-0.12974353 -0.15498807 -0.09287037 0.00054085354 -0.1733911 0.21853499 0.2081978 -0.2156881
-0.1021807 -0.20056732 0.010120954 0.14651291 -0.24940036 -0.16256681 -0.09347081 0.06626623
0.3258942 0.21068075 0.07973486 0.29732475 0.13985473 0.3601007 0.18574227 0.061604045
0.0029557913 -0.16248259 0.08491777 -0.19054753 -0.16914101 -0.039851442 0.17360981 -0.030191248
0.06631979 0.023703145 0.16025653 -0.07740671 -0.13407162 -0.13294186 0.034506302 -0.24547018
0.1953917 -0.023897713 0.0014629295 -0.046037104 -0.14301968 0.18491249 -0.30122647 -0.20305409
-0.21507157 -0.17792346 -0.02872494 -0.16164152 -0.09331006 0.024481192 -0.17023629 0.49889332
-0.18430342 -0.51488876 -0.036548413 -0.25040302 -0.1889232 -0.09293107 0.032716367 0.22142977
-0.12443242 -0.23951124 0.21106555 0.2892595 -0.17526665 -0.08862985 0.020847248 -0.30913335
0.041656543 0.046579428 -0.15335451 -0.3680967 -0.0404379 -0.07014904 -0.04885731 -0.11810863
-0.11511117 -0.11896695 -0.11418679 0.11025404 0.16529405 -0.014524187 -0.4199222 0.018239662
0.10969289 0.009290941 0.01955856 -0.04798335 -0.1404981 0.36080384 -0.1438566 -0.18453057
-0.06297774 -0.4133679 0.31028932 -0.006298667 0.26267973 -0.1505342 0.27899754 -0.03782402

fc2.weight f4 [64, 128]
00000000: f5bb 613e e554 fabd dc6d 263e c06a f4be
00000010: 390c 59be c3e5 9fbe d7c8 1cbe 1d04 b03e
00000020: 6d17 78be dd78 b13b 7dce 103a 7e3b d6bd
00000030: fc69 223e fea1 f73d 6b91 6a3d 6de3 6e3e
00000040: f1bd 56bc a424 8b3e cdd7 77bd ee08 ce3b
00000050: f5c4 45be d748 babb 83f0 83bc c49f b23c
00000060: 4d69 2bbe f9ba 513e 79eb a7be ff5c a13d
00000070: 0538 2f3e 8501 263e 9f6f a53d 2efa c2bd
00000080: 109b 00be 4cba ba3e 7922 293e ab5a a43e
00000090: 3e71 42be a5b9 863c 8e06 643e 2bc0 89be
000000a0: 3ad6 793e a8d1 afbd 6ad6 96be 9377 cdbb
000000b0: 8ee8 5d3d 04bb bbbc 3864 d4bd f9d3 f53c
000000c0: 0afc a7b9 9a56 fe3d f187 29bf 873d 443d
000000d0: 0efa 983e 7e53 afbd f99d 613e 7057 2d3d
000000e0: 0078 fbbe f95e 243e 6268 153c 251a d13d
000000f0: 664f 813d 80c1 e5bc 8ef0 15bd 8235 6d3e
00000100: ac9e 883e 37ce a9bd 4ecd 333d 9b87 223e
00000110: 749f 9e3d cb85 b83e d7d0 10be 839c 2c3e
00000120: 765e 893d b625 e5bc 2038 113f 2aa5 0a3f
00000130: 6a4a 4bbe dffc 793e 3199 323e 63e0 863e
00000140: 250e ddbc 0d51 64be ea9b bcbd 9855 c03e
00000150: 2588 93bd 68b9 12be ec40 62bd c4d8 a43e
00000160: 6408 5bbe 881b 1ebe 4526 cfbd 6c9c 88bc
00000170: 2e3d 8abe a342 953e be7d 39be accd 2e3e
00000180: 4f4d 843d 23ee 9f3c 5cb4 80bd 558c 9f3d
00000190: ea6b 433e 4b13 edbe 0fa3 f93d b0f3 843d
000001a0: 43ad a5bd 32ef 90bc 45ff 25be 05ec 943d
000001b0: 5061 183e 3676 a73e eeaf b33d d1a6 58bf
000001c0: def2 c63e 4786 383d f914 1d3e 7e48 82bd
000001d0: 5f89 343d f923 503d 33b2 dc3e 5738 30be
000001e0: ff8a 653d 2cb3 2b3e fae1 ed3d 4d01 9dbd
000001f0: feb6 93be e9a7 b53e 9d13 f03d 705d d73c
00000200: a442 2e3e 535e 65bf af07 583e efbe ddbd
00000210: e4e1 1dbd fcbe 1dbd 47c2 803e 7036 ccbd
00000220: eef4 203f bcdc 22be fb3f fb3c e1eb ec3e
00000230: b369 533e 8515 89bd 6750 23be 4eb7 f6be
00000240: 28c1 89bd 3756 933e 47ec 593e 8e3f ac3e
00000250: 839f a53e 313c 913e 1af1 d83d 260e 533c
00000260: 3050 033f 456d f7bc acbc 83bd 7c42 463d
00000270: c5ae 36be 235f a23e 4e1e fc3d 4dfe 10bb
00000280: a8af e63d 26a6 373d 76fc a53d 8986 803e
00000290: f3fd 643e 0263 943d 2618 bfbe a7ef 0dbe
000002a0: d7ba 353e c1cf fb3e 10a1 003f fc19 ef3e
000002b0: b2a6 3c3e d920 48be d138 973e 4039 22be
000002c0: a02a 2e3d 42e6 2d3e a0ac 86bd f57b 8fbe
000002d0: 42bc 7dbe fe2c 40bc 9f40 733e 5f73 883d
000002e0: 4eb2 083f da42 f6bc d87e b73e 89e0 22be
000002f0: f0e3 fcbc fb62 7e3d 0dd1 9bbe 77b7 b03d
00000300: dab3 5cbf f056 13bd abed 743d 266a b6be
00000310: 49cc 1c3e be6e f6be 6a72 e3be b20e 953e
00000320: 97c3 cbbe bf84 753e 30d4 cbbe d279 993d
00000330: a98c 5d3e 7c22 11be 28e9 42be d0c7 313e
00000340: f413 2fbe 9e34 8bbe bb6f 89bc f367 88be
00000350: a81e 923d f345 a1bd 2f6b 13bf 1e7e ce3e
00000360: 6b08 26be e1e7 fb3a b9cc 0d3e d0b1 b93e
00000370: 5130 1abc ac2d ab3e 4d40 ea3e ee8b 45be
00000380: 2d28 3bbe d984 bbbe 1b5e aabc 1adb 2ebd
00000390: 4337 cf3c 3689 213d 7771 403e ee8c 80be
000003a0: 5ede 1d3e d4f4 4b3e 09f5 d43d b0d3 763e
000003b0: a01f e33e 1e25 e23c cbf3 f53c 26bf 4e3c
000003c0: 6eee cdbd e9cf 603e 1e38 19be ba3e 40bc
000003d0: ac06 9abc b5da cb3d c5ae ae3d 0869 203e
000003e0: 887f fcbd e1a5 0cbe 9694 f93d c3c0 c53c
000003f0: d3a7 5dbe 31a6 843d 22cd 3b3d 4aa7 9dbc
0.22044356 -0.122232236 0.16252846 -0.47737694 -0.21196069 -0.31229982 -0.1531099 0.34378138
-0.24227686 0.0054160194 0.0005523933 -0.10460566 0.15860742 0.120914444 0.057267588 0.23328944
-0.013106809 0.27176392 -0.060508538 0.0062876856 -0.19313414 -0.0056849527 -0.016105896 0.021804698
-0.16739388 0.2048148 -0.3279684 0.07879066 0.17111214 0.16211517 0.08077931 -0.09520374
-0.12559152 0.36470258 0.16517057 0.32100424 -0.18988511 0.016445944 0.22268125 -0.26904425
0.24398127 -0.08584911 -0.2946046 -0.006270358 0.05417686 -0.022916324 -0.10370678 0.030008303
-0.00032040506 0.12418862 -0.66223055 0.04791024 0.29878277 -0.08560847 0.22032918 0.042319715
-0.4911499 0.16051854 0.009119125 0.10210065 0.06313972 -0.02804637 -0.036606364 0.23164943
0.26683557 -0.082912855 0.043896966 0.15872042 0.07745257 0.36039576 -0.14142166 0.1685658
0.0670747 -0.027972084 0.56726265 0.5415827 -0.19852605 0.24412869 0.1744125 0.26343068
-0.026984284 -0.22296543 -0.09209426 0.37565303 -0.07203702 -0.1432854 -0.055237696 0.3219663
-0.2138992 -0.1544019 -0.10114721 -0.01667615 -0.269998 0.29152402 -0.18114373 0.17070645
0.06460058 0.019522732 -0.06284401 0.07790438 0.19084135 -0.46303782 0.12189304 0.06491792
-0.08089688 -0.017692182 -0.16210659 0.0727158 0.14880872 0.32707375 0.0877379 -0.8462954
0.38857168 0.04504993 0.15340032 -0.06361483 0.04407632 0.050815556 0.43104705 -0.17208992
0.05604076 0.16767567 0.11615367 -0.07666264 -0.2885055 0.35479668 0.11722491 0.026289672
0.17017609 -0.8959705 0.21096681 -0.10827433 -0.038545504 -0.038512215 0.25148222 -0.09971321
0.62873733 -0.15904516 0.030670157 0.4627371 0.2064579 -0.06693558 -0.1594864 -0.48186725
-0.06726295 0.28776714 0.21281539 0.33642238 0.3234826 0.28366235 0.105928615 0.012881791
0.5129423 -0.030203471 -0.06432471 0.04840325 -0.17840107 0.3171321 0.12310468 -0.0022124231
0.112639725 0.044836186 0.08104794 0.25102642 0.22362499 0.07245447 -0.3732311 -0.13860951
0.17747055 0.4918194 0.5024576 0.46699512 0.18422964 -0.1954378 0.29535535 -0.15842152
0.04252112 0.16982368 -0.06575894 -0.2802426 -0.24778846 -0.011729477 0.2375512 0.0666263
0.5339707 -0.030061174 0.35838962 -0.15905966 -0.030870408 0.062106114 -0.3043293 0.08628743
-0.8621193 -0.035971582 0.05979697 -0.3562786 0.15312304 -0.48131365 -0.44423229 0.29112774
-0.3979766 0.2397642 -0.39810324 0.074939385 0.21635689 -0.14173311 -0.19034255 0.17361379
-0.17097455 -0.2718858 -0.01677691 -0.26641807 0.071347535 -0.0787467 -0.57585424 0.40330595
-0.16214149 0.0019218886 0.13847627 0.36268473 -0.009410934 0.33433282 0.45752183 -0.1929166
-0.18277045 -0.36624792 -0.020796826 -0.04268942 0.025294906 0.039437495 0.18793283 -0.2510752
0.15416858 0.19917613 0.10398299 0.2410419 0.44360065 0.02760559 0.030023476 0.0126188155
-0.100552425 0.21954311 -0.14962813 -0.011733705 -0.01880201 0.099538244 0.085294284 0.15665066
-0.12329012 -0.13735153 0.12186544 0.024139768 -0.21646051 0.06477011 0.045849927 -0.019244809

fc2.bias f4 [64]
00000000: 1226 143e fb22 d9bd 75b3 66be da09 153e
00000010: 5cf5 b8be e96b b93e a797 a13e 319a 8c3d
00000020: 8713 0dbe 655a aebe 9b48 2bbe d87d 033f
00000030: 3e85 b6be badb a2be 9661 9abe b541 a8be
00000040: 6bc1 e4bd f319 5bbe 3e39 133e a94c 0dbb
00000050: 140d 5bbe 9c1b 0c3f 6f23 1e3f f127 b93e
00000060: e329 833d 4e0c 64be 0490 91be acd2 e83d
00000070: 89ca 80be 9628 fdbd 028d bc3c ab77 113e
00000080: 4505 363d 6718 503e a3b8 4cbe 6ed2 58be
00000090: 5edf 61bd 6c1e e23d 86bd 763e 281a 3fbe
000000a0: b429 f73d c7f2 443e 5c8c 8fbe 8d09 5abe
000000b0: 9712 1b3e fdeb 1cbe 786b 81bc 8aa2 acbd
000000c0: 9aae 01bf 9675 513d b2bb 81be 0471 8e3a
000000d0: bbe6 123e 80bf 983e 5c24 06be 8de5 793e
000000e0: b7d7 0b3f 3b6f 4abe a5cb 733e bcf8 10bd
000000f0: 9358 073d ed50 00be c0ae 163e 17af cd3e
0.14467648 -0.10602375 -0.22529395 0.1455454 -0.36124694 0.3621514 0.31561014 0.06865347
-0.1377698 -0.3405334 -0.16726916 0.513639 -0.3564853 -0.31808263 -0.30152577 -0.3286263
-0.11169704 -0.21396618 0.14377305 -0.0021560586 -0.21391708 0.5472963 0.6177282 0.36163285
0.06404474 -0.22270319 -0.28430188 0.113683075 -0.25154522 -0.12361257 0.023016457 0.14205806
0.04443862 0.20321809 -0.19992308 -0.21174023 -0.05514466 0.11040959 0.24095735 -0.18662322
0.12068501 0.19233237 -0.28036773 -0.21292706 0.1514381 -0.15324397 -0.015798315 -0.08429439
-0.50657046 0.05113753 -0.25338513 0.0010867422 0.14345829 0.29833603 -0.13099808 0.24403973
0.5462603 -0.19768994 0.23808153 -0.03539346 0.033043455 -0.1253087 0.147151 0.40172645

fc3.weight f4 [10, 64]
00000000: 8560 c8be 50b7 853e 2162 a93d ba15 6cbe
00000010: f93c dcbe 4841 3ebe 6cf0 b03d 268f 0d3e
00000020: 2178 35be 311b 5ebe 16d5 94be fe12 503c
00000030: 554a 93be ef89 4d3e acd9 1b3e 625e 863d
00000040: bdef 673d 5095 ff3b 8cee bdbe db00 4d3e
00000050: 871e dcbe dd20 333d 19fe 583e 51ed 82be
00000060: 3642 3fbe 0c3e 5dbe 4a6b 07bf ca93 9fbe
00000070: 1287 aa3d 2f80 a53e 3bd8 d33d 44d3 883e
00000080: a61f 543d f469 97be e714 91ba 133b 3cbe
00000090: 9899 183e 6abe e5be 8f9d c9be 59a8 a2be
000000a0: a73b 453e ad46 d1bc 9a5f cc3e 76fb f0be
000000b0: c08d dfbe 772f b7be dc24 03be f697 4f3c
000000c0: 84c5 243e 4748 b3be 8342 71be 793b 4f3e
000000d0: 19f0 763e 576e cdbd 5aae 5a3e f195 0a3e
000000e0: aed1 a33b 00f7 80be e1f8 37bd e717 363e
000000f0: cf3e 4c3e 4410 28bd 4f44 aebc 22b9 cfbe
00000100: bd3f 0c3e a72e 3c3d a9af 8d3d e326 41be
00000110: becc 833e 0743 9a3d 88b2 f1be 5fe0 25be
00000120: 1a92 47be 7676 01bd d67b 1bbb 3500 b8be
00000130: 97f3 adbe 4184 943c 8039 c2bd 423b 39bd
00000140: f483 983e 7ff5 0b3e d087 743e 81e9 09bd
00000150: 6405 213e b7a1 17be 0d29 1e3e 3f63 08bb
00000160: fc8e 92bd 0ffe 82be d9ff 9a3d 3481 10bd
00000170: 4ec9 c7bd 35fe eb3d df71 02bf cc7e 7ebe
00000180: eb4e ebbe 0c30 0c3e 8b9f cd3b f035 d7be
00000190: 5117 bd3c a0a3 dd3d 1835 32bd 3c3b a83e
000001a0: 8cdb 36be 5d75 44be 8400 bfbe be36 68bd
000001b0: 8c51 bbbe d1bc e03e e9e1 27bc f8eb c83d
000001c0: 4c08 403e ca1a d73d 706a 17be 7f12 01bf
000001d0: a661 87be fd88 82be 6384 a7be 5b4e d33d
000001e0: a216 aabe 7db9 a93e 674b 733e ae3c 9cbe
000001f0: 29d5 6a3e 9e06 223e 7b94 bdbe 0418 22be
00000200: 7aaf 283e ea99 e8bd d8da 0e3e a4d4 4e3e
00000210: 70ef f4be 2968 853e 04fd 413c 70ab d93d
00000220: 6e1d 94be e1b5 2bbe 0b40 12be 8d6d 183d
00000230: 2351 7b3b b43b 493e 9fbb d13c 31c8 1cbe
00000240: 03f7 92be 8502 8abe e01d afbe 9e0f 4a3e
00000250: e68e c7be 19f8 b9be 0d37 5ebe 38fd 0cbf
00000260: 68a5 1ebe 81f5 babe 1092 11be c911 f23d
00000270: d127 fc3b dc6e b2be ee3d 9d3d 9d7c 06bd
00000280: 5151 fb3d 5b2c 06be 57df c6bd cbb2 f53d
00000290: 82af cc3c 38c4 f63d d121 883d 0d00 ce3d
000002a0: faf3 d3bd 6849 6c3e f11b 193e 512b a73e
000002b0: fe3a 9a3d b8ef 1dbe 6d38 913c 2d34 ccbd
000002c0: 1781 bf3e 5753 2f3e f2d0 d7bd b267 253e
000002d0: e805 1dbe 5f63 95be b18e 1cbe ef72 bcbe
000002e0: ef67 05bd c023 b93d d273 273e 9349 523d
000002f0: 244a 94bd f5b3 c9be c6b2 713c 76ab e03d
00000300: 85e3 253e 4ae2 c6be e02a 4a3e e90a 29be
00000310: 8ea3 2e3e 8ca3 41bc 109e 70be cf81 263e
00000320: c55b 163e 4ef5 9ebd 40fe 793e 8ccb 1b3e
00000330: f185 15be 5ca8 a23c eb7a 96bd a3f7 52be
00000340: 3bc4 ddbe 5cea db3d 1f91 7bbe 40f1 82be
00000350: 9a07 c4be 14b9 493e 1179 d6be 1124 193b
00000360: 9c87 b9be b2c7 1a3c 65dd 223e 4ab6 2cbe
00000370: 8819 85bd 50c8 1abe c676 b4be 078d 97be
00000380: e31d 87be a019 993d 8dc3 55bd 116b 673e
00000390: 9164 f1bd 9e27 1fbd a615 1f3e a640 1bbf
000003a0: ffaf 42ba e6d2 003d 90aa 40bf 2473 573e
000003b0: 69d5 33bd 9502 93bd e0a0 6a3c a893 1b3e
000003c0: de29 2cbb f73a b2bb 2536 15be 5d0a 303e
000003d0: 8fbd 193e 928f 203e 0511 bebe be95 6b3e
000003e0: 7c6b c9bd 875f 97be de86 98be 69ce ba3d
000003f0: 0dc1 cbbe 75fe 74bc 14aa bdbe 1305 df3d
-0.3913614 0.2611642 0.0827067 -0.23055163 -0.43015268 -0.1857959 0.08639607 0.13824138
-0.17721607 -0.2169006 -0.29068822 0.012699841 -0.28767648 0.20072149 0.15219754 0.06560971
0.056625117 0.007799782 -0.3709606 0.20019858 -0.4299204 0.043732513 0.2119068 -0.25571683
-0.18677601 -0.216057 -0.52898085 -0.31167442 0.08326544 0.3232436 0.10343977 0.26723683
0.051787995 -0.29573023 -0.0011068851 -0.1838191 0.14902341 -0.44871837 -0.3937802 -0.31769064
0.19261037 -0.025546396 0.39916688 -0.4706685 -0.43662834 -0.357784 -0.1280703 0.012670508
0.16090971 -0.3501608 -0.23560528 0.20237531 0.24115027 -0.10030811 0.21355572 0.1353376
0.004999361 -0.25188446 -0.044915084 0.17782556 0.19945835 -0.041031137 -0.021272806 -0.40570933
0.13696189 0.04594293 0.0691827 -0.1886249 0.25742143 0.07532316 -0.4720652 -0.16198872
-0.19489327 -0.031607114 -0.0023724935 -0.35937658 -0.33974907 0.01812947 -0.094836235 -0.04522253
0.29788172 0.13667868 0.23879933 -0.033669952 0.15724713 -0.14807783 0.15445347 -0.0020811108
-0.07156178 -0.25584456 0.0756833 -0.035279468 -0.09755193 0.115230955 -0.50955003 -0.24853057
-0.45958647 0.13690203 0.0062751225 -0.4203334 0.023082407 0.108222246 -0.043507665 0.32857692
-0.17857188 -0.19185396 -0.3730508 -0.05669283 -0.36585653 0.43894055 -0.010246732 0.098106325
0.18753165 0.105031565 -0.14786696 -0.5041885 -0.26441687 -0.2549514 -0.3271819 0.103176795
-0.33220392 0.3314933 0.23759232 -0.30515045 0.22932877 0.15822837 -0.37027344 -0.15829474
0.16473189 -0.11357482 0.1395067 0.20198303 -0.47838926 0.2605603 0.011840109 0.10628402
-0.28928703 -0.167686 -0.14282243 0.03721385 0.0038347922 0.19651681 0.02560216 -0.15310742
-0.2870408 -0.26955047 -0.3420248 0.1973252 -0.3897621 -0.36322096 -0.21700688 -0.5507388
-0.15492785 -0.3651543 -0.14215875 0.118197985 0.007695176 -0.34850204 0.07677828 -0.032833684
0.12271369 -0.13102858 -0.097105674 0.11996993 0.024986032 0.120491445 0.06647075 0.100586034
-0.10349269 0.23074877 0.14952065 0.32650235 0.07530783 -0.15423477 0.017727101 -0.09970889
0.37403175 0.17121635 -0.105379 0.16152838 -0.15334284 -0.29177377 -0.15288807 -0.36806437
-0.032569822 0.09040022 0.16352776 0.051339697 -0.07240704 -0.3939511 0.014752096 0.109702036
0.16200073 -0.3884452 0.19742918 -0.16508068 0.17054579 -0.011818778 -0.23497796 0.16260456
0.14683445 -0.07761632 0.24413395 0.15214366 -0.14601876 0.01985567 -0.073476635 -0.20602278
-0.43313774 0.1073806 -0.24567078 -0.25574684 -0.3828705 0.19699508 -0.4188924 0.0023367445
-0.36236274 0.009447025 0.15904768 -0.16866413 -0.0649901 -0.15115476 -0.35246867 -0.29599783
-0.2638999 0.07475591 -0.052188445 0.22599436 -0.1178676 -0.03885614 0.15535602 -0.6064552
-0.0007426738 0.03145113 -0.7526026 0.21040016 -0.043904696 -0.07178227 0.014320582 0.15193045
-0.0026270072 -0.005439158 -0.14571436 0.17191453 0.15013717 0.15679768 -0.3712236 0.23006341
-0.09834954 -0.2956507 -0.29790395 0.09121401 -0.39795724 -0.014953245 -0.37043822 0.1088964

fc3.bias f4 [10]
00000000: 8a93 1ebe ae9b 42be dda5 ccbd ae4f 48bd
00000010: 6ced 9c3c 189f bd3d c702 83be ad72 90be
00000020: 51e8 303f f340 0d3e
-0.15485969 -0.190047 -0.099925734 -0.048904113 0.01915618 0.0925886 -0.25588056 -0.2821249
0.69104487 0.13794307
