Exercise 1/checkpoint.pth (torch, 27567 bytes, 6 tensors)

fc1.weight f4 [8, 784]
000000 38 85 c7 bc a0 76 7a bc 6e ba ad bc 32 51 f1 3c
       -0.024355516 -0.0152870715 -0.02120706 0.029457662
000010 18 f3 86 3b ea 03 4b bc 38 98 c3 3b 38 aa 53 3c
       0.0041183345 -0.01239107 0.0059690736 0.012919001
000020 20 ff da 3b d2 07 fc 3c c0 ce 4d 3c dc 4c a8 3c
       0.0066832453 0.030765448 0.0125615 0.020544462
000030 ce fd f4 be 04 41 04 bf 0c ee d9 be 57 74 be be
       -0.47849888 -0.51661706 -0.42564428 -0.37198135
000040 92 30 1b bc 75 e5 02 bd 66 bc fa 3c e0 d3 5d bb
       -0.009472029 -0.03195711 0.030607414 -0.0033848211
000050 c3 71 a1 bc bb c3 06 3d ce 11 97 bc c0 8c 71 3a
       -0.019707566 0.032901507 -0.018441107 0.0009214394
000060 3f 4f 05 3d 55 75 02 3d 54 77 29 3c 18 3e b4 3b
       0.032546278 0.031850178 0.010343391 0.005500566
000070 ed ba 05 3d 68 3a d8 bc 68 63 15 3c 50 4a 9a 3c
       0.03264897 -0.026395038 0.009117939 0.018834263
000080 a3 71 c3 3e 0a 75 3f 3f d4 76 32 3f 28 f8 39 3f
       0.38172635 0.7478796 0.6971257 0.7264428
000090 a0 c1 54 3f 31 01 ab 3f e7 62 9b 3f e3 d8 a6 3f
       0.8310795 1.3359739 1.2139558 1.3034939
0000a0 39 b6 6c 3f c2 d0 6e 3f 9f 17 67 3f 0f 53 16 3f
       0.9246555 0.9328729 0.9027042 0.5872049
0000b0 63 c2 8f 3e 95 62 bf 3e ed ab 96 3f 8c fe 67 3f
       0.28077993 0.373799 1.1771218 0.9062278
0000c0 41 db e9 3e 09 c2 3f 3e ab 54 c4 bd 79 0e fc bd
       0.4567509 0.18726362 -0.09586462 -0.12307448
0000d0 61 38 00 3d 50 43 6a bb 2a 74 97 bc 7a 47 dc bc
       0.031303767 -0.0035745688 -0.018488009 -0.026889551
0000e0 10 e8 00 3c 5a da ad bc 3b 48 b2 be 72 87 09 be
       0.007867828 -0.021222282 -0.34820732 -0.13430575
0000f0 7d 71 c3 bd 7b a3 27 3f fb fd 88 3f b0 92 c2 3f
       -0.095431305 0.65483826 1.0702509 1.5201015
000100 ee 79 e8 3f 46 d6 d9 3f ae 75 dc 3f f9 e4 d0 3f
       1.816221 1.7018516 1.7223413 1.6319877
000110 14 16 b7 3f 5f 82 6e 3f 4a 2d a8 3f 61 20 85 3f
       1.4303613 0.9316768 1.3138821 1.0400506
000120 ca 01 6a 3f fd e6 80 3f c8 38 a4 3f cc 36 d3 3f
       0.9140898 1.0070492 1.2829828 1.6501098
000130 6b a4 dc 3f 8d d2 9e 3f 5b 3e d5 3e 4b 72 32 bf
       1.7237676 1.2408005 0.41649136 -0.6970565
000140 cb 6b 74 bf d4 1b 3e bf 93 57 ed bc 82 d3 b1 3c
       -0.9547698 -0.7426121 -0.028972423 0.0217073
000150 7c cd 73 3c e8 9b 79 3c bd b1 4f bf ad 1d 76 bd
       0.014880534 0.015234925 -0.8113058 -0.060086895
000160 cd fe 22 3f fa 44 13 3f 73 03 87 3f 5e d0 0a 3f
       0.63670045 0.57527125 1.0547928 0.54224193
000170 ab e4 96 3f 40 65 81 3f c2 19 96 3f b2 4a 8d 3f
       1.1788534 1.0109024 1.1726611 1.103842
000180 9e 1b 5a 3f 84 59 b3 3e 78 7e d3 3e e4 fd f9 3d
       0.8519839 0.35029233 0.41307425 0.12206629
000190 ef 4d 6f be b2 51 2c be 42 d0 ad 3e 72 b4 33 3e
       -0.23369573 -0.1682804 0.3394795 0.17549303
0001a0 59 14 b9 3e c1 59 47 3f 8d 8b b3 3f 2b 23 be 3f
       0.36148337 0.7787133 1.4026963 1.4854482
0001b0 70 93 45 3f a4 8b 4e 3e d6 62 6c be 7a 58 a8 3c
       0.77178097 0.20170456 -0.23084578 0.020550001
0001c0 95 84 cf bc 90 e3 fd 3b 29 c6 3f bf 72 46 e0 3d
       -0.025331775 0.007748075 -0.74911743 0.109509364
0001d0 c7 f5 81 3e 99 5e 16 3e aa 11 e4 3d c8 38 f1 3e
       0.25382826 0.14684524 0.11136182 0.47113633
0001e0 c6 93 b7 3e ab 1b d5 3e 6b 68 e4 3e 27 c4 d4 3e
       0.3585493 0.4162267 0.44610915 0.41555902
0001f0 5d c0 04 3f 96 7d 62 3e 20 46 ae 3e 67 0b a7 3e
       0.51856023 0.2211822 0.34037876 0.32625887
000200 a3 16 6e 3e 27 d6 38 3e bf 49 c4 bc 8d 97 f3 be
       0.23250823 0.18050443 -0.023960946 -0.47576562
000210 09 9c 1a bf 6f 31 fd be 1d cb 0d be 96 bc 58 bd
       -0.6039434 -0.49451777 -0.13847013 -0.052914225
000220 87 05 5a 3f f4 c1 9c 3f fb a2 7d 3f 9a c6 98 3c
       0.85164684 1.224669 0.99076813 0.018649388
000230 c2 dd c2 3c 70 e9 63 bb 03 93 ed 3e dc 5d 49 3e
       0.023787383 -0.003477659 0.46401224 0.19664711
000240 4e f3 4f be aa e6 39 bf 33 f4 ac 3c 07 22 8c 3e
       -0.20307657 -0.7261759 0.021112537 0.2736971
000250 a0 70 47 3e b3 25 57 3e 96 27 8c 3e 71 36 2b 3f
       0.19476557 0.21010475 0.27373952 0.66879946
000260 3c da 09 3f 4f 03 7a 3e 9a c2 0b 3e 97 99 5b bd
       0.53848624 0.24415325 0.13648453 -0.05361327
000270 3a 43 5e 3e 5e 6a ef 3e d1 92 50 3e 72 f4 3e 3e
       0.21705332 0.4676084 0.20368506 0.18647936
000280 42 5f f4 3e 5a 6b 06 3e 8d fc 01 3e a8 03 07 bc
       0.47728926 0.13126889 0.12693997 -0.008240618
000290 5e 83 05 3e f6 06 10 40 c6 e3 ad 3f 2f 98 09 3e
       0.13038394 2.2504249 1.3585136 0.1343696
0002a0 3c 8f 10 3c 31 d3 e7 3e fa 29 48 bd 31 10 8a 3e
       0.008823212 0.45278314 -0.048868157 0.26965478
0002b0 c7 61 8b 3a 8c d9 b1 3e 43 50 ba be 64 36 ca bd
       0.0010633998 0.34736288 -0.3638936 -0.098736554
0002c0 92 0b a5 bd 96 6d aa 3d f2 12 f8 bd 12 9b 6b 3e
       -0.080588475 0.08321683 -0.121129885 0.23008373
0002d0 17 11 b2 3e 6d 46 00 3f 6f 92 f5 3e a6 5d 24 3f
       0.34778664 0.5010746 0.47963282 0.64205396
0002e0 40 1a f4 3e b2 ed 0c 3f 74 f3 97 3e ba f2 fa 3e
       0.47676277 0.55050194 0.29677927 0.4901331
0002f0 db d8 d9 3e 8a 4d 98 3c 23 f2 a5 3e 08 cb 6f 3f
       0.4254826 0.018591661 0.32411298 0.93669176
000300 0a 41 fd 3f e0 92 64 40 25 a1 da 3f 2f 74 1c 3f
       1.9785473 3.5714645 1.7080427 0.6111478
000310 be ba 70 3e a9 9f a6 3e e8 ee 35 bf 74 39 6c 3c
       0.23508736 0.32543686 -0.71067667 0.014417995
000320 98 b2 97 be 23 28 59 3e 33 5f 81 be 15 ec 44 be
       -0.29628444 0.21206717 -0.25267944 -0.19230683
000330 32 42 74 3e 54 8a 3f bd 17 68 ec 3d db bb 09 3e
       0.23853377 -0.04676278 0.11543291 0.13450567
000340 9b f8 91 3e 7c 21 0d 3f 1a e7 21 3f ab d4 47 3f
       0.28509983 0.5512922 0.6324326 0.7805888
000350 bd ef 14 3f d1 e8 94 3e de a3 de 3e 09 a8 0a 3e
       0.5817831 0.29083875 0.43484396 0.13540663
000360 44 0d af 3d 36 40 a3 3e 2b e3 91 3d 35 31 32 3f
       0.08547452 0.31884927 0.07123407 0.69606334
000370 56 06 0c 40 49 e6 40 40 cd b7 bb 3f a7 7b 4d 3f
       2.1878867 3.0140555 1.4665467 0.80266804
000380 15 5f 4f be f1 ea 6c bf e9 ad 39 bf f4 bc 4c bc
       -0.20251115 -0.9254599 -0.7253099 -0.012496222
000390 12 6d 1e be ac dc 08 3e 50 58 d0 3c 99 0e 7c be
       -0.15471295 0.1336543 0.025432736 -0.24614944
0003a0 cf 71 2d 3c 3b d4 23 3e 57 69 c8 3d 03 fd b3 bc
       0.010586216 0.15998928 0.09785717 -0.021971231
0003b0 a3 9a 4e 3e 91 97 b8 3e 9c 94 4c 3e 16 0e c1 3d
       0.20176177 0.36053136 0.19978565 0.09426515
0003c0 78 86 75 3e 3f 54 6b be 6b 86 a1 3d 59 6c 3b 3e
       0.23977077 -0.22981356 0.07886966 0.1830305
0003d0 e1 67 a2 3e 8f 3f b9 3e 60 be 4f bd 71 a2 27 3f
       0.31719878 0.36181304 -0.050718665 0.6548224
0003e0 66 50 21 40 68 1c 50 40 c7 f4 14 40 94 ca f7 3f
       2.5205321 3.2517338 2.32744 1.9358697
0003f0 42 03 97 3d 70 0f f4 be f9 29 b6 be 7f bd 9b 3e
       0.07373668 -0.47668028 -0.35578898 0.30418012

fc1.bias f4 [8]
000000 11 1e 40 3f f7 91 4c bd 8a 8e 3a 3e cc 48 b8 3e
       0.7504588 -0.04994389 0.18218437 0.3599304
000010 91 64 84 3f c4 1b 07 bd c5 25 2f 3f f8 80 ce be
       1.034319 -0.032985464 0.68417007 -0.4033277

fc2.weight f4 [4, 8]
000000 17 82 94 3d b8 f7 62 3e 10 f8 f7 be 08 28 01 3f
       0.07251375 0.2216481 -0.48431444 0.5045171
000010 e1 98 90 3e d4 be 7c 3e 69 ae 34 bf d8 a3 27 3f
       0.28241637 0.2468217 -0.7057863 0.6548438
000020 b0 0f 34 3f 2b 42 b5 be 8c 73 e4 be 06 20 2a 3e
       0.7033644 -0.35402045 -0.44619405 0.16613778
000030 4d f8 21 3f 7c 41 37 be 2a 14 b1 be 13 62 07 bf
       0.632695 -0.17896074 -0.34585696 -0.52884024
000040 e7 a2 4b 3f 6a 96 8a be 48 83 63 be 19 95 4a 3f
       0.79545444 -0.27067882 -0.22218049 0.79133755
000050 af 06 0b bf 89 b9 c4 bd 7f 30 4e 3f d9 01 86 bb
       -0.54307073 -0.096057005 0.8054275 -0.0040895757
000060 ad 0a 22 3f b2 a8 46 be 0e f3 63 3f f9 4d 3f be
       0.6329754 -0.1940029 0.8904275 -0.18682088
000070 b6 eb 02 bf 33 63 14 3d 01 ed 12 bf d9 18 22 3f
       -0.51140916 0.036227416 -0.5739289 0.63319165

fc2.bias f4 [4]
000000 0a f3 35 be a6 86 e2 3e 94 8c 4e bc 9f 83 03 3e
       -0.17768493 0.44243354 -0.012606759 0.12843178

fc3.weight f4 [10, 4]
000000 64 b7 10 bf bd 3b fd bd f7 ce 89 bf cb da 5b 3f
       -0.5652983 -0.1236491 -1.0766286 0.85880727
000010 8b dc 58 3f c1 6f bc be cc 17 61 bd 53 35 73 bf
       0.8471152 -0.3680401 -0.054954335 -0.9500324
000020 b5 e5 fa 3e e6 fe 09 bf 91 e9 32 bf 4d d8 ed 3e
       0.49003378 -0.5390457 -0.69887644 0.46454087
000030 80 c9 5f be 92 42 3b bf cd 86 a6 3e 6e 9d ee 3c
       -0.2185421 -0.73148453 0.3252472 0.029127803
000040 fe d4 67 bf 78 e3 00 3f 8c ba 43 be a9 7b 5f bf
       -0.90559375 0.5034709 -0.1911413 -0.87298065
000050 01 b4 5b bf 9e ef eb 3d 4b b7 82 be a3 21 64 3e
       -0.8582154 0.11520313 -0.25530466 0.22278456
000060 fb ba 0b be 80 ca 2b 3f 21 da ba bf aa e2 c6 3e
       -0.13645546 0.67105865 -1.4597818 0.38844806
000070 eb f1 94 be 08 42 ce bf 50 6b 30 3f 4c b4 ed be
       -0.2909082 -1.6113901 0.68913746 -0.46426618
000080 f6 d0 de bd 88 72 80 3e dc 33 d5 bd f6 e0 ce bd
       -0.108797 0.2508738 -0.10410282 -0.10101502
000090 49 7d 44 bf eb 7a 87 be 23 51 11 3f 5e 71 01 bf
       -0.7675367 -0.26460966 0.5676443 -0.5056361

fc3.bias f4 [10]
000000 5c d7 08 3f 4a 33 89 be be c4 56 3f bb a2 d5 be
       0.5345361 -0.26796943 0.83893955 -0.41725716
000010 91 ad a8 3f c5 c9 a7 3e e5 3b f8 3d 82 b4 f5 3f
       1.3177968 0.32771125 0.12120799 1.9195712
000020 0f 3b 3c c0 46 d4 a2 bf
       -2.9411047 -1.2721031
